{
  "transform_params" : {
    "image" : {
      "bias_a" : 0,
      "bias_g" : 0,
      "bias_r" : 0,
      "bias_b" : 0,
      "center_mean" : 0,
      "is_network_bgr" : 0,
      "scale" : 1
    }
  },
  "properties" : {

  },
  "storage" : "model.espresso.weights",
  "format_version" : 200,
  "layers" : [
    {
      "pad_r" : 0,
      "fused_relu" : 0,
      "fused_tanh" : 0,
      "pad_fill_mode" : 0,
      "pad_b" : 0,
      "pad_l" : 0,
      "top" : "stem_bn1_output",
      "blob_weights" : 3,
      "K" : 3,
      "blob_biases" : 1,
      "stride_x" : 2,
      "name" : "stem_conv1",
      "has_batch_norm" : 0,
      "type" : "convolution",
      "n_groups" : 1,
      "pad_t" : 0,
      "stride_y" : 2,
      "has_biases" : 1,
      "C" : 32,
      "bottom" : "image",
      "weights" : {

      },
      "Nx" : 3,
      "pad_mode" : 0,
      "pad_value" : 0,
      "Ny" : 3,
      "n_parallel" : 1
    },
    {
      "mode" : 0,
      "weights" : {

      },
      "top" : "activation_1_output",
      "type" : "activation",
      "name" : "activation_1",
      "bottom" : "stem_bn1_output"
    },
    {
      "pad_r" : 0,
      "fused_relu" : 0,
      "fused_tanh" : 0,
      "pad_fill_mode" : 0,
      "pad_b" : 0,
      "pad_l" : 0,
      "top" : "reduction_bn_1_stem_1_output",
      "blob_weights" : 7,
      "K" : 32,
      "blob_biases" : 5,
      "name" : "reduction_conv_1_stem_1",
      "has_batch_norm" : 0,
      "type" : "convolution",
      "n_groups" : 1,
      "pad_t" : 0,
      "has_biases" : 1,
      "C" : 11,
      "bottom" : "activation_1_output",
      "weights" : {

      },
      "pad_mode" : 1,
      "Nx" : 1,
      "pad_value" : 0,
      "Ny" : 1,
      "n_parallel" : 1
    },
    {
      "mode" : 0,
      "weights" : {

      },
      "top" : "activation_2_output",
      "type" : "activation",
      "name" : "activation_2",
      "bottom" : "reduction_bn_1_stem_1_output"
    },
    {
      "mode" : 0,
      "weights" : {

      },
      "top" : "activation_4_output",
      "type" : "activation",
      "name" : "activation_4",
      "bottom" : "stem_bn1_output"
    },
    {
      "pad_r" : 0,
      "fused_relu" : 0,
      "fused_tanh" : 0,
      "pad_fill_mode" : 0,
      "pad_b" : 0,
      "pad_l" : 0,
      "top" : "separable_conv_1_reduction_left1_stem_1_output_intermin_",
      "blob_weights" : 9,
      "K" : 11,
      "stride_x" : 2,
      "name" : "separable_conv_1_reduction_left1_stem_1_step_1",
      "has_batch_norm" : 0,
      "type" : "convolution",
      "n_groups" : 11,
      "pad_t" : 0,
      "stride_y" : 2,
      "has_biases" : 0,
      "C" : 11,
      "bottom" : "activation_2_output",
      "weights" : {

      },
      "Nx" : 5,
      "pad_mode" : 1,
      "pad_value" : 0,
      "Ny" : 5,
      "n_parallel" : 1
    },
    {
      "pad_r" : 0,
      "fused_relu" : 1,
      "fused_tanh" : 0,
      "pad_fill_mode" : 0,
      "pad_b" : 0,
      "pad_l" : 0,
      "top" : "activation_3_output",
      "blob_weights" : 13,
      "K" : 11,
      "blob_biases" : 11,
      "name" : "separable_conv_1_reduction_left1_stem_1_step_2",
      "has_batch_norm" : 0,
      "type" : "convolution",
      "n_groups" : 1,
      "pad_t" : 0,
      "has_biases" : 1,
      "C" : 11,
      "bottom" : "separable_conv_1_reduction_left1_stem_1_output_intermin_",
      "weights" : {

      },
      "pad_mode" : 1,
      "Nx" : 1,
      "pad_value" : 0,
      "Ny" : 1,
      "n_parallel" : 1
    },
    {
      "pad_r" : 0,
      "fused_relu" : 0,
      "fused_tanh" : 0,
      "pad_fill_mode" : 0,
      "pad_b" : 0,
      "pad_l" : 0,
      "top" : "separable_conv_1_reduction_1_stem_1_output_intermin_",
      "blob_weights" : 15,
      "K" : 32,
      "stride_x" : 2,
      "name" : "separable_conv_1_reduction_1_stem_1_step_1",
      "has_batch_norm" : 0,
      "type" : "convolution",
      "n_groups" : 32,
      "pad_t" : 0,
      "stride_y" : 2,
      "has_biases" : 0,
      "C" : 32,
      "bottom" : "activation_4_output",
      "weights" : {

      },
      "Nx" : 7,
      "pad_mode" : 1,
      "pad_value" : 0,
      "Ny" : 7,
      "n_parallel" : 1
    },
    {
      "pad_r" : 0,
      "fused_relu" : 1,
      "fused_tanh" : 0,
      "pad_fill_mode" : 0,
      "pad_b" : 0,
      "pad_l" : 0,
      "top" : "activation_5_output",
      "blob_weights" : 19,
      "K" : 32,
      "blob_biases" : 17,
      "name" : "separable_conv_1_reduction_1_stem_1_step_2",
      "has_batch_norm" : 0,
      "type" : "convolution",
      "n_groups" : 1,
      "pad_t" : 0,
      "has_biases" : 1,
      "C" : 11,
      "bottom" : "separable_conv_1_reduction_1_stem_1_output_intermin_",
      "weights" : {

      },
      "pad_mode" : 1,
      "Nx" : 1,
      "pad_value" : 0,
      "Ny" : 1,
      "n_parallel" : 1
    },
    {
      "pad_r" : 0,
      "fused_relu" : 0,
      "fused_tanh" : 0,
      "pad_fill_mode" : 0,
      "pad_b" : 0,
      "pad_l" : 0,
      "top" : "separable_conv_2_reduction_left1_stem_1_output_intermin_",
      "blob_weights" : 21,
      "K" : 11,
      "name" : "separable_conv_2_reduction_left1_stem_1_step_1",
      "has_batch_norm" : 0,
      "type" : "convolution",
      "n_groups" : 11,
      "pad_t" : 0,
      "has_biases" : 0,
      "C" : 11,
      "bottom" : "activation_3_output",
      "weights" : {

      },
      "pad_mode" : 1,
      "Nx" : 5,
      "pad_value" : 0,
      "Ny" : 5,
      "n_parallel" : 1
    },
    {
      "pad_r" : 0,
      "fused_relu" : 0,
      "fused_tanh" : 0,
      "pad_fill_mode" : 0,
      "pad_b" : 0,
      "pad_l" : 0,
      "top" : "separable_conv_2_bn_reduction_left1_stem_1_output",
      "blob_weights" : 25,
      "K" : 11,
      "blob_biases" : 23,
      "name" : "separable_conv_2_reduction_left1_stem_1_step_2",
      "has_batch_norm" : 0,
      "type" : "convolution",
      "n_groups" : 1,
      "pad_t" : 0,
      "has_biases" : 1,
      "C" : 11,
      "bottom" : "separable_conv_2_reduction_left1_stem_1_output_intermin_",
      "weights" : {

      },
      "pad_mode" : 1,
      "Nx" : 1,
      "pad_value" : 0,
      "Ny" : 1,
      "n_parallel" : 1
    },
    {
      "pad_r" : 0,
      "fused_relu" : 0,
      "fused_tanh" : 0,
      "pad_fill_mode" : 0,
      "pad_b" : 0,
      "pad_l" : 0,
      "top" : "separable_conv_2_reduction_1_stem_1_output_intermin_",
      "blob_weights" : 27,
      "K" : 11,
      "name" : "separable_conv_2_reduction_1_stem_1_step_1",
      "has_batch_norm" : 0,
      "type" : "convolution",
      "n_groups" : 11,
      "pad_t" : 0,
      "has_biases" : 0,
      "C" : 11,
      "bottom" : "activation_5_output",
      "weights" : {

      },
      "pad_mode" : 1,
      "Nx" : 7,
      "pad_value" : 0,
      "Ny" : 7,
      "n_parallel" : 1
    },
    {
      "pad_r" : 0,
      "fused_relu" : 0,
      "fused_tanh" : 0,
      "pad_fill_mode" : 0,
      "pad_b" : 0,
      "pad_l" : 0,
      "top" : "separable_conv_2_bn_reduction_1_stem_1_output",
      "blob_weights" : 31,
      "K" : 11,
      "blob_biases" : 29,
      "name" : "separable_conv_2_reduction_1_stem_1_step_2",
      "has_batch_norm" : 0,
      "type" : "convolution",
      "n_groups" : 1,
      "pad_t" : 0,
      "has_biases" : 1,
      "C" : 11,
      "bottom" : "separable_conv_2_reduction_1_stem_1_output_intermin_",
      "weights" : {

      },
      "pad_mode" : 1,
      "Nx" : 1,
      "pad_value" : 0,
      "Ny" : 1,
      "n_parallel" : 1
    },
    {
      "mode" : 0,
      "weights" : {

      },
      "top" : "activation_6_output",
      "type" : "activation",
      "name" : "activation_6",
      "bottom" : "stem_bn1_output"
    },
    {
      "alpha" : 1,
      "bottom" : "separable_conv_2_bn_reduction_left1_stem_1_output,separable_conv_2_bn_reduction_1_stem_1_output",
      "operation" : 0,
      "weights" : {

      },
      "fused_relu" : 0,
      "top" : "reduction_add_1_stem_1_output",
      "type" : "elementwise",
      "name" : "reduction_add_1_stem_1",
      "beta" : 0
    },
    {
      "pad_r" : 0,
      "fused_relu" : 0,
      "fused_tanh" : 0,
      "pad_fill_mode" : 0,
      "pad_b" : 0,
      "pad_l" : 0,
      "top" : "separable_conv_1_reduction_right2_stem_1_output_intermin_",
      "blob_weights" : 33,
      "K" : 32,
      "stride_x" : 2,
      "name" : "separable_conv_1_reduction_right2_stem_1_step_1",
      "has_batch_norm" : 0,
      "type" : "convolution",
      "n_groups" : 32,
      "pad_t" : 0,
      "stride_y" : 2,
      "has_biases" : 0,
      "C" : 32,
      "bottom" : "activation_6_output",
      "weights" : {

      },
      "Nx" : 7,
      "pad_mode" : 1,
      "pad_value" : 0,
      "Ny" : 7,
      "n_parallel" : 1
    },
    {
      "pad_r" : 0,
      "fused_relu" : 1,
      "fused_tanh" : 0,
      "pad_fill_mode" : 0,
      "pad_b" : 0,
      "pad_l" : 0,
      "top" : "activation_7_output",
      "blob_weights" : 37,
      "K" : 32,
      "blob_biases" : 35,
      "name" : "separable_conv_1_reduction_right2_stem_1_step_2",
      "has_batch_norm" : 0,
      "type" : "convolution",
      "n_groups" : 1,
      "pad_t" : 0,
      "has_biases" : 1,
      "C" : 11,
      "bottom" : "separable_conv_1_reduction_right2_stem_1_output_intermin_",
      "weights" : {

      },
      "pad_mode" : 1,
      "Nx" : 1,
      "pad_value" : 0,
      "Ny" : 1,
      "n_parallel" : 1
    },
    {
      "mode" : 0,
      "weights" : {

      },
      "top" : "activation_8_output",
      "type" : "activation",
      "name" : "activation_8",
      "bottom" : "stem_bn1_output"
    },
    {
      "mode" : 0,
      "weights" : {

      },
      "top" : "activation_10_output",
      "type" : "activation",
      "name" : "activation_10",
      "bottom" : "reduction_add_1_stem_1_output"
    },
    {
      "pad_r" : 0,
      "fused_relu" : 0,
      "fused_tanh" : 0,
      "pad_fill_mode" : 0,
      "pad_b" : 0,
      "pad_l" : 0,
      "top" : "separable_conv_1_reduction_right3_stem_1_output_intermin_",
      "blob_weights" : 39,
      "K" : 32,
      "stride_x" : 2,
      "name" : "separable_conv_1_reduction_right3_stem_1_step_1",
      "has_batch_norm" : 0,
      "type" : "convolution",
      "n_groups" : 32,
      "pad_t" : 0,
      "stride_y" : 2,
      "has_biases" : 0,
      "C" : 32,
      "bottom" : "activation_8_output",
      "weights" : {

      },
      "Nx" : 5,
      "pad_mode" : 1,
      "pad_value" : 0,
      "Ny" : 5,
      "n_parallel" : 1
    },
    {
      "pad_r" : 0,
      "fused_relu" : 1,
      "fused_tanh" : 0,
      "pad_fill_mode" : 0,
      "pad_b" : 0,
      "pad_l" : 0,
      "top" : "activation_9_output",
      "blob_weights" : 43,
      "K" : 32,
      "blob_biases" : 41,
      "name" : "separable_conv_1_reduction_right3_stem_1_step_2",
      "has_batch_norm" : 0,
      "type" : "convolution",
      "n_groups" : 1,
      "pad_t" : 0,
      "has_biases" : 1,
      "C" : 11,
      "bottom" : "separable_conv_1_reduction_right3_stem_1_output_intermin_",
      "weights" : {

      },
      "pad_mode" : 1,
      "Nx" : 1,
      "pad_value" : 0,
      "Ny" : 1,
      "n_parallel" : 1
    },
    {
      "pad_r" : 0,
      "fused_relu" : 0,
      "fused_tanh" : 0,
      "pad_fill_mode" : 0,
      "pad_b" : 0,
      "pad_l" : 0,
      "top" : "separable_conv_1_reduction_left4_stem_1_output_intermin_",
      "blob_weights" : 45,
      "K" : 11,
      "name" : "separable_conv_1_reduction_left4_stem_1_step_1",
      "has_batch_norm" : 0,
      "type" : "convolution",
      "n_groups" : 11,
      "pad_t" : 0,
      "has_biases" : 0,
      "C" : 11,
      "bottom" : "activation_10_output",
      "weights" : {

      },
      "pad_mode" : 1,
      "Nx" : 3,
      "pad_value" : 0,
      "Ny" : 3,
      "n_parallel" : 1
    },
    {
      "pad_r" : 0,
      "fused_relu" : 1,
      "fused_tanh" : 0,
      "pad_fill_mode" : 0,
      "pad_b" : 0,
      "pad_l" : 0,
      "top" : "activation_11_output",
      "blob_weights" : 49,
      "K" : 11,
      "blob_biases" : 47,
      "name" : "separable_conv_1_reduction_left4_stem_1_step_2",
      "has_batch_norm" : 0,
      "type" : "convolution",
      "n_groups" : 1,
      "pad_t" : 0,
      "has_biases" : 1,
      "C" : 11,
      "bottom" : "separable_conv_1_reduction_left4_stem_1_output_intermin_",
      "weights" : {

      },
      "pad_mode" : 1,
      "Nx" : 1,
      "pad_value" : 0,
      "Ny" : 1,
      "n_parallel" : 1
    },
    {
      "pad_r" : 0,
      "fused_relu" : 0,
      "fused_tanh" : 0,
      "pad_fill_mode" : 0,
      "pad_b" : 0,
      "pad_l" : 0,
      "top" : "separable_conv_2_reduction_right2_stem_1_output_intermin_",
      "blob_weights" : 51,
      "K" : 11,
      "name" : "separable_conv_2_reduction_right2_stem_1_step_1",
      "has_batch_norm" : 0,
      "type" : "convolution",
      "n_groups" : 11,
      "pad_t" : 0,
      "has_biases" : 0,
      "C" : 11,
      "bottom" : "activation_7_output",
      "weights" : {

      },
      "pad_mode" : 1,
      "Nx" : 7,
      "pad_value" : 0,
      "Ny" : 7,
      "n_parallel" : 1
    },
    {
      "pad_r" : 0,
      "fused_relu" : 0,
      "fused_tanh" : 0,
      "pad_fill_mode" : 0,
      "pad_b" : 0,
      "pad_l" : 0,
      "top" : "separable_conv_2_bn_reduction_right2_stem_1_output",
      "blob_weights" : 55,
      "K" : 11,
      "blob_biases" : 53,
      "name" : "separable_conv_2_reduction_right2_stem_1_step_2",
      "has_batch_norm" : 0,
      "type" : "convolution",
      "n_groups" : 1,
      "pad_t" : 0,
      "has_biases" : 1,
      "C" : 11,
      "bottom" : "separable_conv_2_reduction_right2_stem_1_output_intermin_",
      "weights" : {

      },
      "pad_mode" : 1,
      "Nx" : 1,
      "pad_value" : 0,
      "Ny" : 1,
      "n_parallel" : 1
    },
    {
      "pad_value" : 0,
      "average_count_exclude_padding" : 1,
      "top_shape_style" : 0,
      "avg_or_max" : 1,
      "stride_x" : 2,
      "pad_mode" : 1,
      "stride_y" : 2,
      "pad_t" : 0,
      "weights" : {

      },
      "size_y" : 3,
      "type" : "pool",
      "pad_r" : 0,
      "pad_b" : 0,
      "size_x" : 3,
      "pad_fill_mode" : 0,
      "bottom" : "reduction_bn_1_stem_1_output",
      "pad_l" : 0,
      "name" : "reduction_left2_stem_1",
      "top" : "reduction_left2_stem_1_output"
    },
    {
      "pad_r" : 0,
      "fused_relu" : 0,
      "fused_tanh" : 0,
      "pad_fill_mode" : 0,
      "pad_b" : 0,
      "pad_l" : 0,
      "top" : "separable_conv_2_reduction_right3_stem_1_output_intermin_",
      "blob_weights" : 57,
      "K" : 11,
      "name" : "separable_conv_2_reduction_right3_stem_1_step_1",
      "has_batch_norm" : 0,
      "type" : "convolution",
      "n_groups" : 11,
      "pad_t" : 0,
      "has_biases" : 0,
      "C" : 11,
      "bottom" : "activation_9_output",
      "weights" : {

      },
      "pad_mode" : 1,
      "Nx" : 5,
      "pad_value" : 0,
      "Ny" : 5,
      "n_parallel" : 1
    },
    {
      "pad_r" : 0,
      "fused_relu" : 0,
      "fused_tanh" : 0,
      "pad_fill_mode" : 0,
      "pad_b" : 0,
      "pad_l" : 0,
      "top" : "separable_conv_2_bn_reduction_right3_stem_1_output",
      "blob_weights" : 61,
      "K" : 11,
      "blob_biases" : 59,
      "name" : "separable_conv_2_reduction_right3_stem_1_step_2",
      "has_batch_norm" : 0,
      "type" : "convolution",
      "n_groups" : 1,
      "pad_t" : 0,
      "has_biases" : 1,
      "C" : 11,
      "bottom" : "separable_conv_2_reduction_right3_stem_1_output_intermin_",
      "weights" : {

      },
      "pad_mode" : 1,
      "Nx" : 1,
      "pad_value" : 0,
      "Ny" : 1,
      "n_parallel" : 1
    },
    {
      "pad_r" : 0,
      "fused_relu" : 0,
      "fused_tanh" : 0,
      "pad_fill_mode" : 0,
      "pad_b" : 0,
      "pad_l" : 0,
      "top" : "separable_conv_2_reduction_left4_stem_1_output_intermin_",
      "blob_weights" : 63,
      "K" : 11,
      "name" : "separable_conv_2_reduction_left4_stem_1_step_1",
      "has_batch_norm" : 0,
      "type" : "convolution",
      "n_groups" : 11,
      "pad_t" : 0,
      "has_biases" : 0,
      "C" : 11,
      "bottom" : "activation_11_output",
      "weights" : {

      },
      "pad_mode" : 1,
      "Nx" : 3,
      "pad_value" : 0,
      "Ny" : 3,
      "n_parallel" : 1
    },
    {
      "pad_r" : 0,
      "fused_relu" : 0,
      "fused_tanh" : 0,
      "pad_fill_mode" : 0,
      "pad_b" : 0,
      "pad_l" : 0,
      "top" : "separable_conv_2_bn_reduction_left4_stem_1_output",
      "blob_weights" : 67,
      "K" : 11,
      "blob_biases" : 65,
      "name" : "separable_conv_2_reduction_left4_stem_1_step_2",
      "has_batch_norm" : 0,
      "type" : "convolution",
      "n_groups" : 1,
      "pad_t" : 0,
      "has_biases" : 1,
      "C" : 11,
      "bottom" : "separable_conv_2_reduction_left4_stem_1_output_intermin_",
      "weights" : {

      },
      "pad_mode" : 1,
      "Nx" : 1,
      "pad_value" : 0,
      "Ny" : 1,
      "n_parallel" : 1
    },
    {
      "mode" : 0,
      "weights" : {

      },
      "top" : "adjust_relu_1_stem_2_output",
      "type" : "activation",
      "name" : "adjust_relu_1_stem_2",
      "bottom" : "stem_bn1_output"
    },
    {
      "alpha" : 1,
      "bottom" : "reduction_left2_stem_1_output,separable_conv_2_bn_reduction_right2_stem_1_output",
      "operation" : 0,
      "weights" : {

      },
      "fused_relu" : 0,
      "top" : "reduction_add_2_stem_1_output",
      "type" : "elementwise",
      "name" : "reduction_add_2_stem_1",
      "beta" : 0
    },
    {
      "pad_value" : 0,
      "average_count_exclude_padding" : 1,
      "top_shape_style" : 0,
      "avg_or_max" : 0,
      "stride_x" : 2,
      "pad_mode" : 1,
      "stride_y" : 2,
      "pad_t" : 0,
      "weights" : {

      },
      "size_y" : 3,
      "type" : "pool",
      "pad_r" : 0,
      "pad_b" : 0,
      "size_x" : 3,
      "pad_fill_mode" : 0,
      "bottom" : "reduction_bn_1_stem_1_output",
      "pad_l" : 0,
      "name" : "reduction_left3_stem_1",
      "top" : "reduction_left3_stem_1_output"
    },
    {
      "pad_value" : 0,
      "average_count_exclude_padding" : 1,
      "top_shape_style" : 0,
      "avg_or_max" : 0,
      "stride_x" : 1,
      "pad_mode" : 1,
      "stride_y" : 1,
      "pad_t" : 0,
      "weights" : {

      },
      "size_y" : 3,
      "type" : "pool",
      "pad_r" : 0,
      "pad_b" : 0,
      "size_x" : 3,
      "pad_fill_mode" : 0,
      "bottom" : "reduction_add_1_stem_1_output",
      "pad_l" : 0,
      "name" : "reduction_left4_stem_1",
      "top" : "reduction_left4_stem_1_output"
    },
    {
      "pad_value" : 0,
      "average_count_exclude_padding" : 1,
      "top_shape_style" : 0,
      "avg_or_max" : 1,
      "stride_x" : 2,
      "pad_mode" : 1,
      "stride_y" : 2,
      "pad_t" : 0,
      "weights" : {

      },
      "size_y" : 3,
      "type" : "pool",
      "pad_r" : 0,
      "pad_b" : 0,
      "size_x" : 3,
      "pad_fill_mode" : 0,
      "bottom" : "reduction_bn_1_stem_1_output",
      "pad_l" : 0,
      "name" : "reduction_right5_stem_1",
      "top" : "reduction_right5_stem_1_output"
    },
    {
      "pad_value" : 0,
      "top" : "zero_padding2d_1_output",
      "pad_pad_mode" : 0,
      "pad_t" : 0,
      "pad_r" : 1,
      "pad_b" : 1,
      "type" : "general_padding",
      "pad_fill_mode" : 0,
      "bottom" : "adjust_relu_1_stem_2_output",
      "pad_l" : 0,
      "name" : "zero_padding2d_1",
      "weights" : {

      }
    },
    {
      "alpha" : 1,
      "bottom" : "reduction_left3_stem_1_output,separable_conv_2_bn_reduction_right3_stem_1_output",
      "operation" : 0,
      "weights" : {

      },
      "fused_relu" : 0,
      "top" : "reduction_add3_stem_1_output",
      "type" : "elementwise",
      "name" : "reduction_add3_stem_1",
      "beta" : 0
    },
    {
      "alpha" : 1,
      "bottom" : "reduction_add_2_stem_1_output,reduction_left4_stem_1_output",
      "operation" : 0,
      "weights" : {

      },
      "fused_relu" : 0,
      "top" : "add_1_output",
      "type" : "elementwise",
      "name" : "add_1",
      "beta" : 0
    },
    {
      "alpha" : 1,
      "bottom" : "separable_conv_2_bn_reduction_left4_stem_1_output,reduction_right5_stem_1_output",
      "operation" : 0,
      "weights" : {

      },
      "fused_relu" : 0,
      "top" : "reduction_add4_stem_1_output",
      "type" : "elementwise",
      "name" : "reduction_add4_stem_1",
      "beta" : 0
    },
    {
      "bottom" : "zero_padding2d_1_output",
      "t" : 1,
      "weights" : {

      },
      "l" : 1,
      "r" : 0,
      "top" : "cropping2d_1_output",
      "type" : "crop",
      "name" : "cropping2d_1",
      "b" : 0
    },
    {
      "weights" : {

      },
      "top" : "reduction_concat_stem_1_output",
      "type" : "concat",
      "name" : "reduction_concat_stem_1",
      "bottom" : "reduction_add_2_stem_1_output,reduction_add3_stem_1_output,add_1_output,reduction_add4_stem_1_output"
    },
    {
      "pad_value" : 0,
      "average_count_exclude_padding" : 1,
      "top_shape_style" : 0,
      "avg_or_max" : 0,
      "stride_x" : 2,
      "pad_mode" : 2,
      "stride_y" : 2,
      "pad_t" : 0,
      "weights" : {

      },
      "size_y" : 1,
      "type" : "pool",
      "pad_r" : 0,
      "pad_b" : 0,
      "size_x" : 1,
      "pad_fill_mode" : 0,
      "bottom" : "adjust_relu_1_stem_2_output",
      "pad_l" : 0,
      "name" : "adjust_avg_pool_1_stem_2",
      "top" : "adjust_avg_pool_1_stem_2_output"
    },
    {
      "pad_value" : 0,
      "average_count_exclude_padding" : 1,
      "top_shape_style" : 0,
      "avg_or_max" : 0,
      "stride_x" : 2,
      "pad_mode" : 2,
      "stride_y" : 2,
      "pad_t" : 0,
      "weights" : {

      },
      "size_y" : 1,
      "type" : "pool",
      "pad_r" : 0,
      "pad_b" : 0,
      "size_x" : 1,
      "pad_fill_mode" : 0,
      "bottom" : "cropping2d_1_output",
      "pad_l" : 0,
      "name" : "adjust_avg_pool_2_stem_2",
      "top" : "adjust_avg_pool_2_stem_2_output"
    },
    {
      "mode" : 0,
      "weights" : {

      },
      "top" : "activation_12_output",
      "type" : "activation",
      "name" : "activation_12",
      "bottom" : "reduction_concat_stem_1_output"
    },
    {
      "pad_r" : 0,
      "fused_relu" : 0,
      "fused_tanh" : 0,
      "pad_fill_mode" : 0,
      "pad_b" : 0,
      "pad_l" : 0,
      "top" : "adjust_conv_1_stem_2_output",
      "blob_weights" : 69,
      "K" : 32,
      "name" : "adjust_conv_1_stem_2",
      "has_batch_norm" : 0,
      "type" : "convolution",
      "n_groups" : 1,
      "pad_t" : 0,
      "has_biases" : 0,
      "C" : 11,
      "bottom" : "adjust_avg_pool_1_stem_2_output",
      "weights" : {

      },
      "pad_mode" : 1,
      "Nx" : 1,
      "pad_value" : 0,
      "Ny" : 1,
      "n_parallel" : 1
    },
    {
      "pad_r" : 0,
      "fused_relu" : 0,
      "fused_tanh" : 0,
      "pad_fill_mode" : 0,
      "pad_b" : 0,
      "pad_l" : 0,
      "top" : "adjust_conv_2_stem_2_output",
      "blob_weights" : 71,
      "K" : 32,
      "name" : "adjust_conv_2_stem_2",
      "has_batch_norm" : 0,
      "type" : "convolution",
      "n_groups" : 1,
      "pad_t" : 0,
      "has_biases" : 0,
      "C" : 11,
      "bottom" : "adjust_avg_pool_2_stem_2_output",
      "weights" : {

      },
      "pad_mode" : 1,
      "Nx" : 1,
      "pad_value" : 0,
      "Ny" : 1,
      "n_parallel" : 1
    },
    {
      "pad_r" : 0,
      "fused_relu" : 0,
      "fused_tanh" : 0,
      "pad_fill_mode" : 0,
      "pad_b" : 0,
      "pad_l" : 0,
      "top" : "reduction_bn_1_stem_2_output",
      "blob_weights" : 75,
      "K" : 44,
      "blob_biases" : 73,
      "name" : "reduction_conv_1_stem_2",
      "has_batch_norm" : 0,
      "type" : "convolution",
      "n_groups" : 1,
      "pad_t" : 0,
      "has_biases" : 1,
      "C" : 22,
      "bottom" : "activation_12_output",
      "weights" : {

      },
      "pad_mode" : 1,
      "Nx" : 1,
      "pad_value" : 0,
      "Ny" : 1,
      "n_parallel" : 1
    },
    {
      "weights" : {

      },
      "top" : "concatenate_1_output",
      "type" : "concat",
      "name" : "concatenate_1",
      "bottom" : "adjust_conv_1_stem_2_output,adjust_conv_2_stem_2_output"
    },
    {
      "name" : "adjust_bn_stem_2",
      "bottom" : "concatenate_1_output",
      "weights" : {

      },
      "top" : "adjust_bn_stem_2_output",
      "C" : 22,
      "blob_batchnorm_params" : 77,
      "type" : "batchnorm"
    },
    {
      "mode" : 0,
      "weights" : {

      },
      "top" : "activation_13_output",
      "type" : "activation",
      "name" : "activation_13",
      "bottom" : "reduction_bn_1_stem_2_output"
    },
    {
      "mode" : 0,
      "weights" : {

      },
      "top" : "activation_15_output",
      "type" : "activation",
      "name" : "activation_15",
      "bottom" : "adjust_bn_stem_2_output"
    },
    {
      "pad_r" : 0,
      "fused_relu" : 0,
      "fused_tanh" : 0,
      "pad_fill_mode" : 0,
      "pad_b" : 0,
      "pad_l" : 0,
      "top" : "separable_conv_1_reduction_left1_stem_2_output_intermin_",
      "blob_weights" : 79,
      "K" : 22,
      "stride_x" : 2,
      "name" : "separable_conv_1_reduction_left1_stem_2_step_1",
      "has_batch_norm" : 0,
      "type" : "convolution",
      "n_groups" : 22,
      "pad_t" : 0,
      "stride_y" : 2,
      "has_biases" : 0,
      "C" : 22,
      "bottom" : "activation_13_output",
      "weights" : {

      },
      "Nx" : 5,
      "pad_mode" : 1,
      "pad_value" : 0,
      "Ny" : 5,
      "n_parallel" : 1
    },
    {
      "pad_r" : 0,
      "fused_relu" : 1,
      "fused_tanh" : 0,
      "pad_fill_mode" : 0,
      "pad_b" : 0,
      "pad_l" : 0,
      "top" : "activation_14_output",
      "blob_weights" : 83,
      "K" : 22,
      "blob_biases" : 81,
      "name" : "separable_conv_1_reduction_left1_stem_2_step_2",
      "has_batch_norm" : 0,
      "type" : "convolution",
      "n_groups" : 1,
      "pad_t" : 0,
      "has_biases" : 1,
      "C" : 22,
      "bottom" : "separable_conv_1_reduction_left1_stem_2_output_intermin_",
      "weights" : {

      },
      "pad_mode" : 1,
      "Nx" : 1,
      "pad_value" : 0,
      "Ny" : 1,
      "n_parallel" : 1
    },
    {
      "pad_r" : 0,
      "fused_relu" : 0,
      "fused_tanh" : 0,
      "pad_fill_mode" : 0,
      "pad_b" : 0,
      "pad_l" : 0,
      "top" : "separable_conv_1_reduction_1_stem_2_output_intermin_",
      "blob_weights" : 85,
      "K" : 22,
      "stride_x" : 2,
      "name" : "separable_conv_1_reduction_1_stem_2_step_1",
      "has_batch_norm" : 0,
      "type" : "convolution",
      "n_groups" : 22,
      "pad_t" : 0,
      "stride_y" : 2,
      "has_biases" : 0,
      "C" : 22,
      "bottom" : "activation_15_output",
      "weights" : {

      },
      "Nx" : 7,
      "pad_mode" : 1,
      "pad_value" : 0,
      "Ny" : 7,
      "n_parallel" : 1
    },
    {
      "pad_r" : 0,
      "fused_relu" : 1,
      "fused_tanh" : 0,
      "pad_fill_mode" : 0,
      "pad_b" : 0,
      "pad_l" : 0,
      "top" : "activation_16_output",
      "blob_weights" : 89,
      "K" : 22,
      "blob_biases" : 87,
      "name" : "separable_conv_1_reduction_1_stem_2_step_2",
      "has_batch_norm" : 0,
      "type" : "convolution",
      "n_groups" : 1,
      "pad_t" : 0,
      "has_biases" : 1,
      "C" : 22,
      "bottom" : "separable_conv_1_reduction_1_stem_2_output_intermin_",
      "weights" : {

      },
      "pad_mode" : 1,
      "Nx" : 1,
      "pad_value" : 0,
      "Ny" : 1,
      "n_parallel" : 1
    },
    {
      "pad_r" : 0,
      "fused_relu" : 0,
      "fused_tanh" : 0,
      "pad_fill_mode" : 0,
      "pad_b" : 0,
      "pad_l" : 0,
      "top" : "separable_conv_2_reduction_left1_stem_2_output_intermin_",
      "blob_weights" : 91,
      "K" : 22,
      "name" : "separable_conv_2_reduction_left1_stem_2_step_1",
      "has_batch_norm" : 0,
      "type" : "convolution",
      "n_groups" : 22,
      "pad_t" : 0,
      "has_biases" : 0,
      "C" : 22,
      "bottom" : "activation_14_output",
      "weights" : {

      },
      "pad_mode" : 1,
      "Nx" : 5,
      "pad_value" : 0,
      "Ny" : 5,
      "n_parallel" : 1
    },
    {
      "pad_r" : 0,
      "fused_relu" : 0,
      "fused_tanh" : 0,
      "pad_fill_mode" : 0,
      "pad_b" : 0,
      "pad_l" : 0,
      "top" : "separable_conv_2_bn_reduction_left1_stem_2_output",
      "blob_weights" : 95,
      "K" : 22,
      "blob_biases" : 93,
      "name" : "separable_conv_2_reduction_left1_stem_2_step_2",
      "has_batch_norm" : 0,
      "type" : "convolution",
      "n_groups" : 1,
      "pad_t" : 0,
      "has_biases" : 1,
      "C" : 22,
      "bottom" : "separable_conv_2_reduction_left1_stem_2_output_intermin_",
      "weights" : {

      },
      "pad_mode" : 1,
      "Nx" : 1,
      "pad_value" : 0,
      "Ny" : 1,
      "n_parallel" : 1
    },
    {
      "pad_r" : 0,
      "fused_relu" : 0,
      "fused_tanh" : 0,
      "pad_fill_mode" : 0,
      "pad_b" : 0,
      "pad_l" : 0,
      "top" : "separable_conv_2_reduction_1_stem_2_output_intermin_",
      "blob_weights" : 97,
      "K" : 22,
      "name" : "separable_conv_2_reduction_1_stem_2_step_1",
      "has_batch_norm" : 0,
      "type" : "convolution",
      "n_groups" : 22,
      "pad_t" : 0,
      "has_biases" : 0,
      "C" : 22,
      "bottom" : "activation_16_output",
      "weights" : {

      },
      "pad_mode" : 1,
      "Nx" : 7,
      "pad_value" : 0,
      "Ny" : 7,
      "n_parallel" : 1
    },
    {
      "pad_r" : 0,
      "fused_relu" : 0,
      "fused_tanh" : 0,
      "pad_fill_mode" : 0,
      "pad_b" : 0,
      "pad_l" : 0,
      "top" : "separable_conv_2_bn_reduction_1_stem_2_output",
      "blob_weights" : 101,
      "K" : 22,
      "blob_biases" : 99,
      "name" : "separable_conv_2_reduction_1_stem_2_step_2",
      "has_batch_norm" : 0,
      "type" : "convolution",
      "n_groups" : 1,
      "pad_t" : 0,
      "has_biases" : 1,
      "C" : 22,
      "bottom" : "separable_conv_2_reduction_1_stem_2_output_intermin_",
      "weights" : {

      },
      "pad_mode" : 1,
      "Nx" : 1,
      "pad_value" : 0,
      "Ny" : 1,
      "n_parallel" : 1
    },
    {
      "mode" : 0,
      "weights" : {

      },
      "top" : "activation_17_output",
      "type" : "activation",
      "name" : "activation_17",
      "bottom" : "adjust_bn_stem_2_output"
    },
    {
      "alpha" : 1,
      "bottom" : "separable_conv_2_bn_reduction_left1_stem_2_output,separable_conv_2_bn_reduction_1_stem_2_output",
      "operation" : 0,
      "weights" : {

      },
      "fused_relu" : 0,
      "top" : "reduction_add_1_stem_2_output",
      "type" : "elementwise",
      "name" : "reduction_add_1_stem_2",
      "beta" : 0
    },
    {
      "pad_r" : 0,
      "fused_relu" : 0,
      "fused_tanh" : 0,
      "pad_fill_mode" : 0,
      "pad_b" : 0,
      "pad_l" : 0,
      "top" : "separable_conv_1_reduction_right2_stem_2_output_intermin_",
      "blob_weights" : 103,
      "K" : 22,
      "stride_x" : 2,
      "name" : "separable_conv_1_reduction_right2_stem_2_step_1",
      "has_batch_norm" : 0,
      "type" : "convolution",
      "n_groups" : 22,
      "pad_t" : 0,
      "stride_y" : 2,
      "has_biases" : 0,
      "C" : 22,
      "bottom" : "activation_17_output",
      "weights" : {

      },
      "Nx" : 7,
      "pad_mode" : 1,
      "pad_value" : 0,
      "Ny" : 7,
      "n_parallel" : 1
    },
    {
      "pad_r" : 0,
      "fused_relu" : 1,
      "fused_tanh" : 0,
      "pad_fill_mode" : 0,
      "pad_b" : 0,
      "pad_l" : 0,
      "top" : "activation_18_output",
      "blob_weights" : 107,
      "K" : 22,
      "blob_biases" : 105,
      "name" : "separable_conv_1_reduction_right2_stem_2_step_2",
      "has_batch_norm" : 0,
      "type" : "convolution",
      "n_groups" : 1,
      "pad_t" : 0,
      "has_biases" : 1,
      "C" : 22,
      "bottom" : "separable_conv_1_reduction_right2_stem_2_output_intermin_",
      "weights" : {

      },
      "pad_mode" : 1,
      "Nx" : 1,
      "pad_value" : 0,
      "Ny" : 1,
      "n_parallel" : 1
    },
    {
      "mode" : 0,
      "weights" : {

      },
      "top" : "activation_19_output",
      "type" : "activation",
      "name" : "activation_19",
      "bottom" : "adjust_bn_stem_2_output"
    },
    {
      "mode" : 0,
      "weights" : {

      },
      "top" : "activation_21_output",
      "type" : "activation",
      "name" : "activation_21",
      "bottom" : "reduction_add_1_stem_2_output"
    },
    {
      "pad_r" : 0,
      "fused_relu" : 0,
      "fused_tanh" : 0,
      "pad_fill_mode" : 0,
      "pad_b" : 0,
      "pad_l" : 0,
      "top" : "separable_conv_1_reduction_right3_stem_2_output_intermin_",
      "blob_weights" : 109,
      "K" : 22,
      "stride_x" : 2,
      "name" : "separable_conv_1_reduction_right3_stem_2_step_1",
      "has_batch_norm" : 0,
      "type" : "convolution",
      "n_groups" : 22,
      "pad_t" : 0,
      "stride_y" : 2,
      "has_biases" : 0,
      "C" : 22,
      "bottom" : "activation_19_output",
      "weights" : {

      },
      "Nx" : 5,
      "pad_mode" : 1,
      "pad_value" : 0,
      "Ny" : 5,
      "n_parallel" : 1
    },
    {
      "pad_r" : 0,
      "fused_relu" : 1,
      "fused_tanh" : 0,
      "pad_fill_mode" : 0,
      "pad_b" : 0,
      "pad_l" : 0,
      "top" : "activation_20_output",
      "blob_weights" : 113,
      "K" : 22,
      "blob_biases" : 111,
      "name" : "separable_conv_1_reduction_right3_stem_2_step_2",
      "has_batch_norm" : 0,
      "type" : "convolution",
      "n_groups" : 1,
      "pad_t" : 0,
      "has_biases" : 1,
      "C" : 22,
      "bottom" : "separable_conv_1_reduction_right3_stem_2_output_intermin_",
      "weights" : {

      },
      "pad_mode" : 1,
      "Nx" : 1,
      "pad_value" : 0,
      "Ny" : 1,
      "n_parallel" : 1
    },
    {
      "pad_r" : 0,
      "fused_relu" : 0,
      "fused_tanh" : 0,
      "pad_fill_mode" : 0,
      "pad_b" : 0,
      "pad_l" : 0,
      "top" : "separable_conv_1_reduction_left4_stem_2_output_intermin_",
      "blob_weights" : 115,
      "K" : 22,
      "name" : "separable_conv_1_reduction_left4_stem_2_step_1",
      "has_batch_norm" : 0,
      "type" : "convolution",
      "n_groups" : 22,
      "pad_t" : 0,
      "has_biases" : 0,
      "C" : 22,
      "bottom" : "activation_21_output",
      "weights" : {

      },
      "pad_mode" : 1,
      "Nx" : 3,
      "pad_value" : 0,
      "Ny" : 3,
      "n_parallel" : 1
    },
    {
      "pad_r" : 0,
      "fused_relu" : 1,
      "fused_tanh" : 0,
      "pad_fill_mode" : 0,
      "pad_b" : 0,
      "pad_l" : 0,
      "top" : "activation_22_output",
      "blob_weights" : 119,
      "K" : 22,
      "blob_biases" : 117,
      "name" : "separable_conv_1_reduction_left4_stem_2_step_2",
      "has_batch_norm" : 0,
      "type" : "convolution",
      "n_groups" : 1,
      "pad_t" : 0,
      "has_biases" : 1,
      "C" : 22,
      "bottom" : "separable_conv_1_reduction_left4_stem_2_output_intermin_",
      "weights" : {

      },
      "pad_mode" : 1,
      "Nx" : 1,
      "pad_value" : 0,
      "Ny" : 1,
      "n_parallel" : 1
    },
    {
      "pad_r" : 0,
      "fused_relu" : 0,
      "fused_tanh" : 0,
      "pad_fill_mode" : 0,
      "pad_b" : 0,
      "pad_l" : 0,
      "top" : "separable_conv_2_reduction_right2_stem_2_output_intermin_",
      "blob_weights" : 121,
      "K" : 22,
      "name" : "separable_conv_2_reduction_right2_stem_2_step_1",
      "has_batch_norm" : 0,
      "type" : "convolution",
      "n_groups" : 22,
      "pad_t" : 0,
      "has_biases" : 0,
      "C" : 22,
      "bottom" : "activation_18_output",
      "weights" : {

      },
      "pad_mode" : 1,
      "Nx" : 7,
      "pad_value" : 0,
      "Ny" : 7,
      "n_parallel" : 1
    },
    {
      "pad_r" : 0,
      "fused_relu" : 0,
      "fused_tanh" : 0,
      "pad_fill_mode" : 0,
      "pad_b" : 0,
      "pad_l" : 0,
      "top" : "separable_conv_2_bn_reduction_right2_stem_2_output",
      "blob_weights" : 125,
      "K" : 22,
      "blob_biases" : 123,
      "name" : "separable_conv_2_reduction_right2_stem_2_step_2",
      "has_batch_norm" : 0,
      "type" : "convolution",
      "n_groups" : 1,
      "pad_t" : 0,
      "has_biases" : 1,
      "C" : 22,
      "bottom" : "separable_conv_2_reduction_right2_stem_2_output_intermin_",
      "weights" : {

      },
      "pad_mode" : 1,
      "Nx" : 1,
      "pad_value" : 0,
      "Ny" : 1,
      "n_parallel" : 1
    },
    {
      "pad_value" : 0,
      "average_count_exclude_padding" : 1,
      "top_shape_style" : 0,
      "avg_or_max" : 1,
      "stride_x" : 2,
      "pad_mode" : 1,
      "stride_y" : 2,
      "pad_t" : 0,
      "weights" : {

      },
      "size_y" : 3,
      "type" : "pool",
      "pad_r" : 0,
      "pad_b" : 0,
      "size_x" : 3,
      "pad_fill_mode" : 0,
      "bottom" : "reduction_bn_1_stem_2_output",
      "pad_l" : 0,
      "name" : "reduction_left2_stem_2",
      "top" : "reduction_left2_stem_2_output"
    },
    {
      "pad_r" : 0,
      "fused_relu" : 0,
      "fused_tanh" : 0,
      "pad_fill_mode" : 0,
      "pad_b" : 0,
      "pad_l" : 0,
      "top" : "separable_conv_2_reduction_right3_stem_2_output_intermin_",
      "blob_weights" : 127,
      "K" : 22,
      "name" : "separable_conv_2_reduction_right3_stem_2_step_1",
      "has_batch_norm" : 0,
      "type" : "convolution",
      "n_groups" : 22,
      "pad_t" : 0,
      "has_biases" : 0,
      "C" : 22,
      "bottom" : "activation_20_output",
      "weights" : {

      },
      "pad_mode" : 1,
      "Nx" : 5,
      "pad_value" : 0,
      "Ny" : 5,
      "n_parallel" : 1
    },
    {
      "pad_r" : 0,
      "fused_relu" : 0,
      "fused_tanh" : 0,
      "pad_fill_mode" : 0,
      "pad_b" : 0,
      "pad_l" : 0,
      "top" : "separable_conv_2_bn_reduction_right3_stem_2_output",
      "blob_weights" : 131,
      "K" : 22,
      "blob_biases" : 129,
      "name" : "separable_conv_2_reduction_right3_stem_2_step_2",
      "has_batch_norm" : 0,
      "type" : "convolution",
      "n_groups" : 1,
      "pad_t" : 0,
      "has_biases" : 1,
      "C" : 22,
      "bottom" : "separable_conv_2_reduction_right3_stem_2_output_intermin_",
      "weights" : {

      },
      "pad_mode" : 1,
      "Nx" : 1,
      "pad_value" : 0,
      "Ny" : 1,
      "n_parallel" : 1
    },
    {
      "pad_r" : 0,
      "fused_relu" : 0,
      "fused_tanh" : 0,
      "pad_fill_mode" : 0,
      "pad_b" : 0,
      "pad_l" : 0,
      "top" : "separable_conv_2_reduction_left4_stem_2_output_intermin_",
      "blob_weights" : 133,
      "K" : 22,
      "name" : "separable_conv_2_reduction_left4_stem_2_step_1",
      "has_batch_norm" : 0,
      "type" : "convolution",
      "n_groups" : 22,
      "pad_t" : 0,
      "has_biases" : 0,
      "C" : 22,
      "bottom" : "activation_22_output",
      "weights" : {

      },
      "pad_mode" : 1,
      "Nx" : 3,
      "pad_value" : 0,
      "Ny" : 3,
      "n_parallel" : 1
    },
    {
      "pad_r" : 0,
      "fused_relu" : 0,
      "fused_tanh" : 0,
      "pad_fill_mode" : 0,
      "pad_b" : 0,
      "pad_l" : 0,
      "top" : "separable_conv_2_bn_reduction_left4_stem_2_output",
      "blob_weights" : 137,
      "K" : 22,
      "blob_biases" : 135,
      "name" : "separable_conv_2_reduction_left4_stem_2_step_2",
      "has_batch_norm" : 0,
      "type" : "convolution",
      "n_groups" : 1,
      "pad_t" : 0,
      "has_biases" : 1,
      "C" : 22,
      "bottom" : "separable_conv_2_reduction_left4_stem_2_output_intermin_",
      "weights" : {

      },
      "pad_mode" : 1,
      "Nx" : 1,
      "pad_value" : 0,
      "Ny" : 1,
      "n_parallel" : 1
    },
    {
      "mode" : 0,
      "weights" : {

      },
      "top" : "adjust_relu_1_0_output",
      "type" : "activation",
      "name" : "adjust_relu_1_0",
      "bottom" : "reduction_concat_stem_1_output"
    },
    {
      "alpha" : 1,
      "bottom" : "reduction_left2_stem_2_output,separable_conv_2_bn_reduction_right2_stem_2_output",
      "operation" : 0,
      "weights" : {

      },
      "fused_relu" : 0,
      "top" : "reduction_add_2_stem_2_output",
      "type" : "elementwise",
      "name" : "reduction_add_2_stem_2",
      "beta" : 0
    },
    {
      "pad_value" : 0,
      "average_count_exclude_padding" : 1,
      "top_shape_style" : 0,
      "avg_or_max" : 0,
      "stride_x" : 2,
      "pad_mode" : 1,
      "stride_y" : 2,
      "pad_t" : 0,
      "weights" : {

      },
      "size_y" : 3,
      "type" : "pool",
      "pad_r" : 0,
      "pad_b" : 0,
      "size_x" : 3,
      "pad_fill_mode" : 0,
      "bottom" : "reduction_bn_1_stem_2_output",
      "pad_l" : 0,
      "name" : "reduction_left3_stem_2",
      "top" : "reduction_left3_stem_2_output"
    },
    {
      "pad_value" : 0,
      "average_count_exclude_padding" : 1,
      "top_shape_style" : 0,
      "avg_or_max" : 0,
      "stride_x" : 1,
      "pad_mode" : 1,
      "stride_y" : 1,
      "pad_t" : 0,
      "weights" : {

      },
      "size_y" : 3,
      "type" : "pool",
      "pad_r" : 0,
      "pad_b" : 0,
      "size_x" : 3,
      "pad_fill_mode" : 0,
      "bottom" : "reduction_add_1_stem_2_output",
      "pad_l" : 0,
      "name" : "reduction_left4_stem_2",
      "top" : "reduction_left4_stem_2_output"
    },
    {
      "pad_value" : 0,
      "average_count_exclude_padding" : 1,
      "top_shape_style" : 0,
      "avg_or_max" : 1,
      "stride_x" : 2,
      "pad_mode" : 1,
      "stride_y" : 2,
      "pad_t" : 0,
      "weights" : {

      },
      "size_y" : 3,
      "type" : "pool",
      "pad_r" : 0,
      "pad_b" : 0,
      "size_x" : 3,
      "pad_fill_mode" : 0,
      "bottom" : "reduction_bn_1_stem_2_output",
      "pad_l" : 0,
      "name" : "reduction_right5_stem_2",
      "top" : "reduction_right5_stem_2_output"
    },
    {
      "pad_value" : 0,
      "top" : "zero_padding2d_2_output",
      "pad_pad_mode" : 0,
      "pad_t" : 0,
      "pad_r" : 1,
      "pad_b" : 1,
      "type" : "general_padding",
      "pad_fill_mode" : 0,
      "bottom" : "adjust_relu_1_0_output",
      "pad_l" : 0,
      "name" : "zero_padding2d_2",
      "weights" : {

      }
    },
    {
      "alpha" : 1,
      "bottom" : "reduction_left3_stem_2_output,separable_conv_2_bn_reduction_right3_stem_2_output",
      "operation" : 0,
      "weights" : {

      },
      "fused_relu" : 0,
      "top" : "reduction_add3_stem_2_output",
      "type" : "elementwise",
      "name" : "reduction_add3_stem_2",
      "beta" : 0
    },
    {
      "alpha" : 1,
      "bottom" : "reduction_add_2_stem_2_output,reduction_left4_stem_2_output",
      "operation" : 0,
      "weights" : {

      },
      "fused_relu" : 0,
      "top" : "add_2_output",
      "type" : "elementwise",
      "name" : "add_2",
      "beta" : 0
    },
    {
      "alpha" : 1,
      "bottom" : "separable_conv_2_bn_reduction_left4_stem_2_output,reduction_right5_stem_2_output",
      "operation" : 0,
      "weights" : {

      },
      "fused_relu" : 0,
      "top" : "reduction_add4_stem_2_output",
      "type" : "elementwise",
      "name" : "reduction_add4_stem_2",
      "beta" : 0
    },
    {
      "bottom" : "zero_padding2d_2_output",
      "t" : 1,
      "weights" : {

      },
      "l" : 1,
      "r" : 0,
      "top" : "cropping2d_2_output",
      "type" : "crop",
      "name" : "cropping2d_2",
      "b" : 0
    },
    {
      "weights" : {

      },
      "top" : "reduction_concat_stem_2_output",
      "type" : "concat",
      "name" : "reduction_concat_stem_2",
      "bottom" : "reduction_add_2_stem_2_output,reduction_add3_stem_2_output,add_2_output,reduction_add4_stem_2_output"
    },
    {
      "pad_value" : 0,
      "average_count_exclude_padding" : 1,
      "top_shape_style" : 0,
      "avg_or_max" : 0,
      "stride_x" : 2,
      "pad_mode" : 2,
      "stride_y" : 2,
      "pad_t" : 0,
      "weights" : {

      },
      "size_y" : 1,
      "type" : "pool",
      "pad_r" : 0,
      "pad_b" : 0,
      "size_x" : 1,
      "pad_fill_mode" : 0,
      "bottom" : "adjust_relu_1_0_output",
      "pad_l" : 0,
      "name" : "adjust_avg_pool_1_0",
      "top" : "adjust_avg_pool_1_0_output"
    },
    {
      "pad_value" : 0,
      "average_count_exclude_padding" : 1,
      "top_shape_style" : 0,
      "avg_or_max" : 0,
      "stride_x" : 2,
      "pad_mode" : 2,
      "stride_y" : 2,
      "pad_t" : 0,
      "weights" : {

      },
      "size_y" : 1,
      "type" : "pool",
      "pad_r" : 0,
      "pad_b" : 0,
      "size_x" : 1,
      "pad_fill_mode" : 0,
      "bottom" : "cropping2d_2_output",
      "pad_l" : 0,
      "name" : "adjust_avg_pool_2_0",
      "top" : "adjust_avg_pool_2_0_output"
    },
    {
      "pad_r" : 0,
      "fused_relu" : 0,
      "fused_tanh" : 0,
      "pad_fill_mode" : 0,
      "pad_b" : 0,
      "pad_l" : 0,
      "top" : "adjust_conv_1_0_output",
      "blob_weights" : 139,
      "K" : 44,
      "name" : "adjust_conv_1_0",
      "has_batch_norm" : 0,
      "type" : "convolution",
      "n_groups" : 1,
      "pad_t" : 0,
      "has_biases" : 0,
      "C" : 22,
      "bottom" : "adjust_avg_pool_1_0_output",
      "weights" : {

      },
      "pad_mode" : 1,
      "Nx" : 1,
      "pad_value" : 0,
      "Ny" : 1,
      "n_parallel" : 1
    },
    {
      "pad_r" : 0,
      "fused_relu" : 0,
      "fused_tanh" : 0,
      "pad_fill_mode" : 0,
      "pad_b" : 0,
      "pad_l" : 0,
      "top" : "adjust_conv_2_0_output",
      "blob_weights" : 141,
      "K" : 44,
      "name" : "adjust_conv_2_0",
      "has_batch_norm" : 0,
      "type" : "convolution",
      "n_groups" : 1,
      "pad_t" : 0,
      "has_biases" : 0,
      "C" : 22,
      "bottom" : "adjust_avg_pool_2_0_output",
      "weights" : {

      },
      "pad_mode" : 1,
      "Nx" : 1,
      "pad_value" : 0,
      "Ny" : 1,
      "n_parallel" : 1
    },
    {
      "mode" : 0,
      "weights" : {

      },
      "top" : "activation_23_output",
      "type" : "activation",
      "name" : "activation_23",
      "bottom" : "reduction_concat_stem_2_output"
    },
    {
      "weights" : {

      },
      "top" : "concatenate_2_output",
      "type" : "concat",
      "name" : "concatenate_2",
      "bottom" : "adjust_conv_1_0_output,adjust_conv_2_0_output"
    },
    {
      "pad_r" : 0,
      "fused_relu" : 0,
      "fused_tanh" : 0,
      "pad_fill_mode" : 0,
      "pad_b" : 0,
      "pad_l" : 0,
      "top" : "normal_bn_1_0_output",
      "blob_weights" : 145,
      "K" : 88,
      "blob_biases" : 143,
      "name" : "normal_conv_1_0",
      "has_batch_norm" : 0,
      "type" : "convolution",
      "n_groups" : 1,
      "pad_t" : 0,
      "has_biases" : 1,
      "C" : 44,
      "bottom" : "activation_23_output",
      "weights" : {

      },
      "pad_mode" : 1,
      "Nx" : 1,
      "pad_value" : 0,
      "Ny" : 1,
      "n_parallel" : 1
    },
    {
      "name" : "adjust_bn_0",
      "bottom" : "concatenate_2_output",
      "weights" : {

      },
      "top" : "adjust_bn_0_output",
      "C" : 44,
      "blob_batchnorm_params" : 147,
      "type" : "batchnorm"
    },
    {
      "mode" : 0,
      "weights" : {

      },
      "top" : "activation_24_output",
      "type" : "activation",
      "name" : "activation_24",
      "bottom" : "normal_bn_1_0_output"
    },
    {
      "mode" : 0,
      "weights" : {

      },
      "top" : "activation_26_output",
      "type" : "activation",
      "name" : "activation_26",
      "bottom" : "adjust_bn_0_output"
    },
    {
      "mode" : 0,
      "weights" : {

      },
      "top" : "activation_28_output",
      "type" : "activation",
      "name" : "activation_28",
      "bottom" : "adjust_bn_0_output"
    },
    {
      "mode" : 0,
      "weights" : {

      },
      "top" : "activation_30_output",
      "type" : "activation",
      "name" : "activation_30",
      "bottom" : "adjust_bn_0_output"
    },
    {
      "mode" : 0,
      "weights" : {

      },
      "top" : "activation_32_output",
      "type" : "activation",
      "name" : "activation_32",
      "bottom" : "normal_bn_1_0_output"
    },
    {
      "pad_r" : 0,
      "fused_relu" : 0,
      "fused_tanh" : 0,
      "pad_fill_mode" : 0,
      "pad_b" : 0,
      "pad_l" : 0,
      "top" : "separable_conv_1_normal_left1_0_output_intermin_",
      "blob_weights" : 149,
      "K" : 44,
      "name" : "separable_conv_1_normal_left1_0_step_1",
      "has_batch_norm" : 0,
      "type" : "convolution",
      "n_groups" : 44,
      "pad_t" : 0,
      "has_biases" : 0,
      "C" : 44,
      "bottom" : "activation_24_output",
      "weights" : {

      },
      "pad_mode" : 1,
      "Nx" : 5,
      "pad_value" : 0,
      "Ny" : 5,
      "n_parallel" : 1
    },
    {
      "pad_r" : 0,
      "fused_relu" : 1,
      "fused_tanh" : 0,
      "pad_fill_mode" : 0,
      "pad_b" : 0,
      "pad_l" : 0,
      "top" : "activation_25_output",
      "blob_weights" : 153,
      "K" : 44,
      "blob_biases" : 151,
      "name" : "separable_conv_1_normal_left1_0_step_2",
      "has_batch_norm" : 0,
      "type" : "convolution",
      "n_groups" : 1,
      "pad_t" : 0,
      "has_biases" : 1,
      "C" : 44,
      "bottom" : "separable_conv_1_normal_left1_0_output_intermin_",
      "weights" : {

      },
      "pad_mode" : 1,
      "Nx" : 1,
      "pad_value" : 0,
      "Ny" : 1,
      "n_parallel" : 1
    },
    {
      "pad_r" : 0,
      "fused_relu" : 0,
      "fused_tanh" : 0,
      "pad_fill_mode" : 0,
      "pad_b" : 0,
      "pad_l" : 0,
      "top" : "separable_conv_1_normal_right1_0_output_intermin_",
      "blob_weights" : 155,
      "K" : 44,
      "name" : "separable_conv_1_normal_right1_0_step_1",
      "has_batch_norm" : 0,
      "type" : "convolution",
      "n_groups" : 44,
      "pad_t" : 0,
      "has_biases" : 0,
      "C" : 44,
      "bottom" : "activation_26_output",
      "weights" : {

      },
      "pad_mode" : 1,
      "Nx" : 3,
      "pad_value" : 0,
      "Ny" : 3,
      "n_parallel" : 1
    },
    {
      "pad_r" : 0,
      "fused_relu" : 1,
      "fused_tanh" : 0,
      "pad_fill_mode" : 0,
      "pad_b" : 0,
      "pad_l" : 0,
      "top" : "activation_27_output",
      "blob_weights" : 159,
      "K" : 44,
      "blob_biases" : 157,
      "name" : "separable_conv_1_normal_right1_0_step_2",
      "has_batch_norm" : 0,
      "type" : "convolution",
      "n_groups" : 1,
      "pad_t" : 0,
      "has_biases" : 1,
      "C" : 44,
      "bottom" : "separable_conv_1_normal_right1_0_output_intermin_",
      "weights" : {

      },
      "pad_mode" : 1,
      "Nx" : 1,
      "pad_value" : 0,
      "Ny" : 1,
      "n_parallel" : 1
    },
    {
      "pad_r" : 0,
      "fused_relu" : 0,
      "fused_tanh" : 0,
      "pad_fill_mode" : 0,
      "pad_b" : 0,
      "pad_l" : 0,
      "top" : "separable_conv_1_normal_left2_0_output_intermin_",
      "blob_weights" : 161,
      "K" : 44,
      "name" : "separable_conv_1_normal_left2_0_step_1",
      "has_batch_norm" : 0,
      "type" : "convolution",
      "n_groups" : 44,
      "pad_t" : 0,
      "has_biases" : 0,
      "C" : 44,
      "bottom" : "activation_28_output",
      "weights" : {

      },
      "pad_mode" : 1,
      "Nx" : 5,
      "pad_value" : 0,
      "Ny" : 5,
      "n_parallel" : 1
    },
    {
      "pad_r" : 0,
      "fused_relu" : 1,
      "fused_tanh" : 0,
      "pad_fill_mode" : 0,
      "pad_b" : 0,
      "pad_l" : 0,
      "top" : "activation_29_output",
      "blob_weights" : 165,
      "K" : 44,
      "blob_biases" : 163,
      "name" : "separable_conv_1_normal_left2_0_step_2",
      "has_batch_norm" : 0,
      "type" : "convolution",
      "n_groups" : 1,
      "pad_t" : 0,
      "has_biases" : 1,
      "C" : 44,
      "bottom" : "separable_conv_1_normal_left2_0_output_intermin_",
      "weights" : {

      },
      "pad_mode" : 1,
      "Nx" : 1,
      "pad_value" : 0,
      "Ny" : 1,
      "n_parallel" : 1
    },
    {
      "pad_r" : 0,
      "fused_relu" : 0,
      "fused_tanh" : 0,
      "pad_fill_mode" : 0,
      "pad_b" : 0,
      "pad_l" : 0,
      "top" : "separable_conv_1_normal_right2_0_output_intermin_",
      "blob_weights" : 167,
      "K" : 44,
      "name" : "separable_conv_1_normal_right2_0_step_1",
      "has_batch_norm" : 0,
      "type" : "convolution",
      "n_groups" : 44,
      "pad_t" : 0,
      "has_biases" : 0,
      "C" : 44,
      "bottom" : "activation_30_output",
      "weights" : {

      },
      "pad_mode" : 1,
      "Nx" : 3,
      "pad_value" : 0,
      "Ny" : 3,
      "n_parallel" : 1
    },
    {
      "pad_r" : 0,
      "fused_relu" : 1,
      "fused_tanh" : 0,
      "pad_fill_mode" : 0,
      "pad_b" : 0,
      "pad_l" : 0,
      "top" : "activation_31_output",
      "blob_weights" : 171,
      "K" : 44,
      "blob_biases" : 169,
      "name" : "separable_conv_1_normal_right2_0_step_2",
      "has_batch_norm" : 0,
      "type" : "convolution",
      "n_groups" : 1,
      "pad_t" : 0,
      "has_biases" : 1,
      "C" : 44,
      "bottom" : "separable_conv_1_normal_right2_0_output_intermin_",
      "weights" : {

      },
      "pad_mode" : 1,
      "Nx" : 1,
      "pad_value" : 0,
      "Ny" : 1,
      "n_parallel" : 1
    },
    {
      "pad_r" : 0,
      "fused_relu" : 0,
      "fused_tanh" : 0,
      "pad_fill_mode" : 0,
      "pad_b" : 0,
      "pad_l" : 0,
      "top" : "separable_conv_1_normal_left5_0_output_intermin_",
      "blob_weights" : 173,
      "K" : 44,
      "name" : "separable_conv_1_normal_left5_0_step_1",
      "has_batch_norm" : 0,
      "type" : "convolution",
      "n_groups" : 44,
      "pad_t" : 0,
      "has_biases" : 0,
      "C" : 44,
      "bottom" : "activation_32_output",
      "weights" : {

      },
      "pad_mode" : 1,
      "Nx" : 3,
      "pad_value" : 0,
      "Ny" : 3,
      "n_parallel" : 1
    },
    {
      "pad_r" : 0,
      "fused_relu" : 1,
      "fused_tanh" : 0,
      "pad_fill_mode" : 0,
      "pad_b" : 0,
      "pad_l" : 0,
      "top" : "activation_33_output",
      "blob_weights" : 177,
      "K" : 44,
      "blob_biases" : 175,
      "name" : "separable_conv_1_normal_left5_0_step_2",
      "has_batch_norm" : 0,
      "type" : "convolution",
      "n_groups" : 1,
      "pad_t" : 0,
      "has_biases" : 1,
      "C" : 44,
      "bottom" : "separable_conv_1_normal_left5_0_output_intermin_",
      "weights" : {

      },
      "pad_mode" : 1,
      "Nx" : 1,
      "pad_value" : 0,
      "Ny" : 1,
      "n_parallel" : 1
    },
    {
      "pad_r" : 0,
      "fused_relu" : 0,
      "fused_tanh" : 0,
      "pad_fill_mode" : 0,
      "pad_b" : 0,
      "pad_l" : 0,
      "top" : "separable_conv_2_normal_left1_0_output_intermin_",
      "blob_weights" : 179,
      "K" : 44,
      "name" : "separable_conv_2_normal_left1_0_step_1",
      "has_batch_norm" : 0,
      "type" : "convolution",
      "n_groups" : 44,
      "pad_t" : 0,
      "has_biases" : 0,
      "C" : 44,
      "bottom" : "activation_25_output",
      "weights" : {

      },
      "pad_mode" : 1,
      "Nx" : 5,
      "pad_value" : 0,
      "Ny" : 5,
      "n_parallel" : 1
    },
    {
      "pad_r" : 0,
      "fused_relu" : 0,
      "fused_tanh" : 0,
      "pad_fill_mode" : 0,
      "pad_b" : 0,
      "pad_l" : 0,
      "top" : "separable_conv_2_bn_normal_left1_0_output",
      "blob_weights" : 183,
      "K" : 44,
      "blob_biases" : 181,
      "name" : "separable_conv_2_normal_left1_0_step_2",
      "has_batch_norm" : 0,
      "type" : "convolution",
      "n_groups" : 1,
      "pad_t" : 0,
      "has_biases" : 1,
      "C" : 44,
      "bottom" : "separable_conv_2_normal_left1_0_output_intermin_",
      "weights" : {

      },
      "pad_mode" : 1,
      "Nx" : 1,
      "pad_value" : 0,
      "Ny" : 1,
      "n_parallel" : 1
    },
    {
      "pad_r" : 0,
      "fused_relu" : 0,
      "fused_tanh" : 0,
      "pad_fill_mode" : 0,
      "pad_b" : 0,
      "pad_l" : 0,
      "top" : "separable_conv_2_normal_right1_0_output_intermin_",
      "blob_weights" : 185,
      "K" : 44,
      "name" : "separable_conv_2_normal_right1_0_step_1",
      "has_batch_norm" : 0,
      "type" : "convolution",
      "n_groups" : 44,
      "pad_t" : 0,
      "has_biases" : 0,
      "C" : 44,
      "bottom" : "activation_27_output",
      "weights" : {

      },
      "pad_mode" : 1,
      "Nx" : 3,
      "pad_value" : 0,
      "Ny" : 3,
      "n_parallel" : 1
    },
    {
      "pad_r" : 0,
      "fused_relu" : 0,
      "fused_tanh" : 0,
      "pad_fill_mode" : 0,
      "pad_b" : 0,
      "pad_l" : 0,
      "top" : "separable_conv_2_bn_normal_right1_0_output",
      "blob_weights" : 189,
      "K" : 44,
      "blob_biases" : 187,
      "name" : "separable_conv_2_normal_right1_0_step_2",
      "has_batch_norm" : 0,
      "type" : "convolution",
      "n_groups" : 1,
      "pad_t" : 0,
      "has_biases" : 1,
      "C" : 44,
      "bottom" : "separable_conv_2_normal_right1_0_output_intermin_",
      "weights" : {

      },
      "pad_mode" : 1,
      "Nx" : 1,
      "pad_value" : 0,
      "Ny" : 1,
      "n_parallel" : 1
    },
    {
      "pad_r" : 0,
      "fused_relu" : 0,
      "fused_tanh" : 0,
      "pad_fill_mode" : 0,
      "pad_b" : 0,
      "pad_l" : 0,
      "top" : "separable_conv_2_normal_left2_0_output_intermin_",
      "blob_weights" : 191,
      "K" : 44,
      "name" : "separable_conv_2_normal_left2_0_step_1",
      "has_batch_norm" : 0,
      "type" : "convolution",
      "n_groups" : 44,
      "pad_t" : 0,
      "has_biases" : 0,
      "C" : 44,
      "bottom" : "activation_29_output",
      "weights" : {

      },
      "pad_mode" : 1,
      "Nx" : 5,
      "pad_value" : 0,
      "Ny" : 5,
      "n_parallel" : 1
    },
    {
      "pad_r" : 0,
      "fused_relu" : 0,
      "fused_tanh" : 0,
      "pad_fill_mode" : 0,
      "pad_b" : 0,
      "pad_l" : 0,
      "top" : "separable_conv_2_bn_normal_left2_0_output",
      "blob_weights" : 195,
      "K" : 44,
      "blob_biases" : 193,
      "name" : "separable_conv_2_normal_left2_0_step_2",
      "has_batch_norm" : 0,
      "type" : "convolution",
      "n_groups" : 1,
      "pad_t" : 0,
      "has_biases" : 1,
      "C" : 44,
      "bottom" : "separable_conv_2_normal_left2_0_output_intermin_",
      "weights" : {

      },
      "pad_mode" : 1,
      "Nx" : 1,
      "pad_value" : 0,
      "Ny" : 1,
      "n_parallel" : 1
    },
    {
      "pad_r" : 0,
      "fused_relu" : 0,
      "fused_tanh" : 0,
      "pad_fill_mode" : 0,
      "pad_b" : 0,
      "pad_l" : 0,
      "top" : "separable_conv_2_normal_right2_0_output_intermin_",
      "blob_weights" : 197,
      "K" : 44,
      "name" : "separable_conv_2_normal_right2_0_step_1",
      "has_batch_norm" : 0,
      "type" : "convolution",
      "n_groups" : 44,
      "pad_t" : 0,
      "has_biases" : 0,
      "C" : 44,
      "bottom" : "activation_31_output",
      "weights" : {

      },
      "pad_mode" : 1,
      "Nx" : 3,
      "pad_value" : 0,
      "Ny" : 3,
      "n_parallel" : 1
    },
    {
      "pad_r" : 0,
      "fused_relu" : 0,
      "fused_tanh" : 0,
      "pad_fill_mode" : 0,
      "pad_b" : 0,
      "pad_l" : 0,
      "top" : "separable_conv_2_bn_normal_right2_0_output",
      "blob_weights" : 201,
      "K" : 44,
      "blob_biases" : 199,
      "name" : "separable_conv_2_normal_right2_0_step_2",
      "has_batch_norm" : 0,
      "type" : "convolution",
      "n_groups" : 1,
      "pad_t" : 0,
      "has_biases" : 1,
      "C" : 44,
      "bottom" : "separable_conv_2_normal_right2_0_output_intermin_",
      "weights" : {

      },
      "pad_mode" : 1,
      "Nx" : 1,
      "pad_value" : 0,
      "Ny" : 1,
      "n_parallel" : 1
    },
    {
      "pad_r" : 0,
      "fused_relu" : 0,
      "fused_tanh" : 0,
      "pad_fill_mode" : 0,
      "pad_b" : 0,
      "pad_l" : 0,
      "top" : "separable_conv_2_normal_left5_0_output_intermin_",
      "blob_weights" : 203,
      "K" : 44,
      "name" : "separable_conv_2_normal_left5_0_step_1",
      "has_batch_norm" : 0,
      "type" : "convolution",
      "n_groups" : 44,
      "pad_t" : 0,
      "has_biases" : 0,
      "C" : 44,
      "bottom" : "activation_33_output",
      "weights" : {

      },
      "pad_mode" : 1,
      "Nx" : 3,
      "pad_value" : 0,
      "Ny" : 3,
      "n_parallel" : 1
    },
    {
      "pad_r" : 0,
      "fused_relu" : 0,
      "fused_tanh" : 0,
      "pad_fill_mode" : 0,
      "pad_b" : 0,
      "pad_l" : 0,
      "top" : "separable_conv_2_bn_normal_left5_0_output",
      "blob_weights" : 207,
      "K" : 44,
      "blob_biases" : 205,
      "name" : "separable_conv_2_normal_left5_0_step_2",
      "has_batch_norm" : 0,
      "type" : "convolution",
      "n_groups" : 1,
      "pad_t" : 0,
      "has_biases" : 1,
      "C" : 44,
      "bottom" : "separable_conv_2_normal_left5_0_output_intermin_",
      "weights" : {

      },
      "pad_mode" : 1,
      "Nx" : 1,
      "pad_value" : 0,
      "Ny" : 1,
      "n_parallel" : 1
    },
    {
      "pad_value" : 0,
      "average_count_exclude_padding" : 1,
      "top_shape_style" : 0,
      "avg_or_max" : 0,
      "stride_x" : 1,
      "pad_mode" : 1,
      "stride_y" : 1,
      "pad_t" : 0,
      "weights" : {

      },
      "size_y" : 3,
      "type" : "pool",
      "pad_r" : 0,
      "pad_b" : 0,
      "size_x" : 3,
      "pad_fill_mode" : 0,
      "bottom" : "normal_bn_1_0_output",
      "pad_l" : 0,
      "name" : "normal_left3_0",
      "top" : "normal_left3_0_output"
    },
    {
      "pad_value" : 0,
      "average_count_exclude_padding" : 1,
      "top_shape_style" : 0,
      "avg_or_max" : 0,
      "stride_x" : 1,
      "pad_mode" : 1,
      "stride_y" : 1,
      "pad_t" : 0,
      "weights" : {

      },
      "size_y" : 3,
      "type" : "pool",
      "pad_r" : 0,
      "pad_b" : 0,
      "size_x" : 3,
      "pad_fill_mode" : 0,
      "bottom" : "adjust_bn_0_output",
      "pad_l" : 0,
      "name" : "normal_left4_0",
      "top" : "normal_left4_0_output"
    },
    {
      "pad_value" : 0,
      "average_count_exclude_padding" : 1,
      "top_shape_style" : 0,
      "avg_or_max" : 0,
      "stride_x" : 1,
      "pad_mode" : 1,
      "stride_y" : 1,
      "pad_t" : 0,
      "weights" : {

      },
      "size_y" : 3,
      "type" : "pool",
      "pad_r" : 0,
      "pad_b" : 0,
      "size_x" : 3,
      "pad_fill_mode" : 0,
      "bottom" : "adjust_bn_0_output",
      "pad_l" : 0,
      "name" : "normal_right4_0",
      "top" : "normal_right4_0_output"
    },
    {
      "alpha" : 1,
      "bottom" : "separable_conv_2_bn_normal_left1_0_output,separable_conv_2_bn_normal_right1_0_output",
      "operation" : 0,
      "weights" : {

      },
      "fused_relu" : 0,
      "top" : "normal_add_1_0_output",
      "type" : "elementwise",
      "name" : "normal_add_1_0",
      "beta" : 0
    },
    {
      "alpha" : 1,
      "bottom" : "separable_conv_2_bn_normal_left2_0_output,separable_conv_2_bn_normal_right2_0_output",
      "operation" : 0,
      "weights" : {

      },
      "fused_relu" : 0,
      "top" : "normal_add_2_0_output",
      "type" : "elementwise",
      "name" : "normal_add_2_0",
      "beta" : 0
    },
    {
      "alpha" : 1,
      "bottom" : "normal_left3_0_output,adjust_bn_0_output",
      "operation" : 0,
      "weights" : {

      },
      "fused_relu" : 0,
      "top" : "normal_add_3_0_output",
      "type" : "elementwise",
      "name" : "normal_add_3_0",
      "beta" : 0
    },
    {
      "alpha" : 1,
      "bottom" : "normal_left4_0_output,normal_right4_0_output",
      "operation" : 0,
      "weights" : {

      },
      "fused_relu" : 0,
      "top" : "normal_add_4_0_output",
      "type" : "elementwise",
      "name" : "normal_add_4_0",
      "beta" : 0
    },
    {
      "alpha" : 1,
      "bottom" : "separable_conv_2_bn_normal_left5_0_output,normal_bn_1_0_output",
      "operation" : 0,
      "weights" : {

      },
      "fused_relu" : 0,
      "top" : "normal_add_5_0_output",
      "type" : "elementwise",
      "name" : "normal_add_5_0",
      "beta" : 0
    },
    {
      "weights" : {

      },
      "top" : "normal_concat_0_output",
      "type" : "concat",
      "name" : "normal_concat_0",
      "bottom" : "adjust_bn_0_output,normal_add_1_0_output,normal_add_2_0_output,normal_add_3_0_output,normal_add_4_0_output,normal_add_5_0_output"
    },
    {
      "mode" : 0,
      "weights" : {

      },
      "top" : "activation_34_output",
      "type" : "activation",
      "name" : "activation_34",
      "bottom" : "reduction_concat_stem_2_output"
    },
    {
      "mode" : 0,
      "weights" : {

      },
      "top" : "activation_35_output",
      "type" : "activation",
      "name" : "activation_35",
      "bottom" : "normal_concat_0_output"
    },
    {
      "pad_r" : 0,
      "fused_relu" : 0,
      "fused_tanh" : 0,
      "pad_fill_mode" : 0,
      "pad_b" : 0,
      "pad_l" : 0,
      "top" : "adjust_bn_1_output",
      "blob_weights" : 211,
      "K" : 88,
      "blob_biases" : 209,
      "name" : "adjust_conv_projection_1",
      "has_batch_norm" : 0,
      "type" : "convolution",
      "n_groups" : 1,
      "pad_t" : 0,
      "has_biases" : 1,
      "C" : 44,
      "bottom" : "activation_34_output",
      "weights" : {

      },
      "pad_mode" : 1,
      "Nx" : 1,
      "pad_value" : 0,
      "Ny" : 1,
      "n_parallel" : 1
    },
    {
      "pad_r" : 0,
      "fused_relu" : 0,
      "fused_tanh" : 0,
      "pad_fill_mode" : 0,
      "pad_b" : 0,
      "pad_l" : 0,
      "top" : "normal_bn_1_1_output",
      "blob_weights" : 215,
      "K" : 264,
      "blob_biases" : 213,
      "name" : "normal_conv_1_1",
      "has_batch_norm" : 0,
      "type" : "convolution",
      "n_groups" : 1,
      "pad_t" : 0,
      "has_biases" : 1,
      "C" : 44,
      "bottom" : "activation_35_output",
      "weights" : {

      },
      "pad_mode" : 1,
      "Nx" : 1,
      "pad_value" : 0,
      "Ny" : 1,
      "n_parallel" : 1
    },
    {
      "mode" : 0,
      "weights" : {

      },
      "top" : "activation_36_output",
      "type" : "activation",
      "name" : "activation_36",
      "bottom" : "normal_bn_1_1_output"
    },
    {
      "mode" : 0,
      "weights" : {

      },
      "top" : "activation_38_output",
      "type" : "activation",
      "name" : "activation_38",
      "bottom" : "adjust_bn_1_output"
    },
    {
      "mode" : 0,
      "weights" : {

      },
      "top" : "activation_40_output",
      "type" : "activation",
      "name" : "activation_40",
      "bottom" : "adjust_bn_1_output"
    },
    {
      "mode" : 0,
      "weights" : {

      },
      "top" : "activation_42_output",
      "type" : "activation",
      "name" : "activation_42",
      "bottom" : "adjust_bn_1_output"
    },
    {
      "mode" : 0,
      "weights" : {

      },
      "top" : "activation_44_output",
      "type" : "activation",
      "name" : "activation_44",
      "bottom" : "normal_bn_1_1_output"
    },
    {
      "pad_r" : 0,
      "fused_relu" : 0,
      "fused_tanh" : 0,
      "pad_fill_mode" : 0,
      "pad_b" : 0,
      "pad_l" : 0,
      "top" : "separable_conv_1_normal_left1_1_output_intermin_",
      "blob_weights" : 217,
      "K" : 44,
      "name" : "separable_conv_1_normal_left1_1_step_1",
      "has_batch_norm" : 0,
      "type" : "convolution",
      "n_groups" : 44,
      "pad_t" : 0,
      "has_biases" : 0,
      "C" : 44,
      "bottom" : "activation_36_output",
      "weights" : {

      },
      "pad_mode" : 1,
      "Nx" : 5,
      "pad_value" : 0,
      "Ny" : 5,
      "n_parallel" : 1
    },
    {
      "pad_r" : 0,
      "fused_relu" : 1,
      "fused_tanh" : 0,
      "pad_fill_mode" : 0,
      "pad_b" : 0,
      "pad_l" : 0,
      "top" : "activation_37_output",
      "blob_weights" : 221,
      "K" : 44,
      "blob_biases" : 219,
      "name" : "separable_conv_1_normal_left1_1_step_2",
      "has_batch_norm" : 0,
      "type" : "convolution",
      "n_groups" : 1,
      "pad_t" : 0,
      "has_biases" : 1,
      "C" : 44,
      "bottom" : "separable_conv_1_normal_left1_1_output_intermin_",
      "weights" : {

      },
      "pad_mode" : 1,
      "Nx" : 1,
      "pad_value" : 0,
      "Ny" : 1,
      "n_parallel" : 1
    },
    {
      "pad_r" : 0,
      "fused_relu" : 0,
      "fused_tanh" : 0,
      "pad_fill_mode" : 0,
      "pad_b" : 0,
      "pad_l" : 0,
      "top" : "separable_conv_1_normal_right1_1_output_intermin_",
      "blob_weights" : 223,
      "K" : 44,
      "name" : "separable_conv_1_normal_right1_1_step_1",
      "has_batch_norm" : 0,
      "type" : "convolution",
      "n_groups" : 44,
      "pad_t" : 0,
      "has_biases" : 0,
      "C" : 44,
      "bottom" : "activation_38_output",
      "weights" : {

      },
      "pad_mode" : 1,
      "Nx" : 3,
      "pad_value" : 0,
      "Ny" : 3,
      "n_parallel" : 1
    },
    {
      "pad_r" : 0,
      "fused_relu" : 1,
      "fused_tanh" : 0,
      "pad_fill_mode" : 0,
      "pad_b" : 0,
      "pad_l" : 0,
      "top" : "activation_39_output",
      "blob_weights" : 227,
      "K" : 44,
      "blob_biases" : 225,
      "name" : "separable_conv_1_normal_right1_1_step_2",
      "has_batch_norm" : 0,
      "type" : "convolution",
      "n_groups" : 1,
      "pad_t" : 0,
      "has_biases" : 1,
      "C" : 44,
      "bottom" : "separable_conv_1_normal_right1_1_output_intermin_",
      "weights" : {

      },
      "pad_mode" : 1,
      "Nx" : 1,
      "pad_value" : 0,
      "Ny" : 1,
      "n_parallel" : 1
    },
    {
      "pad_r" : 0,
      "fused_relu" : 0,
      "fused_tanh" : 0,
      "pad_fill_mode" : 0,
      "pad_b" : 0,
      "pad_l" : 0,
      "top" : "separable_conv_1_normal_left2_1_output_intermin_",
      "blob_weights" : 229,
      "K" : 44,
      "name" : "separable_conv_1_normal_left2_1_step_1",
      "has_batch_norm" : 0,
      "type" : "convolution",
      "n_groups" : 44,
      "pad_t" : 0,
      "has_biases" : 0,
      "C" : 44,
      "bottom" : "activation_40_output",
      "weights" : {

      },
      "pad_mode" : 1,
      "Nx" : 5,
      "pad_value" : 0,
      "Ny" : 5,
      "n_parallel" : 1
    },
    {
      "pad_r" : 0,
      "fused_relu" : 1,
      "fused_tanh" : 0,
      "pad_fill_mode" : 0,
      "pad_b" : 0,
      "pad_l" : 0,
      "top" : "activation_41_output",
      "blob_weights" : 233,
      "K" : 44,
      "blob_biases" : 231,
      "name" : "separable_conv_1_normal_left2_1_step_2",
      "has_batch_norm" : 0,
      "type" : "convolution",
      "n_groups" : 1,
      "pad_t" : 0,
      "has_biases" : 1,
      "C" : 44,
      "bottom" : "separable_conv_1_normal_left2_1_output_intermin_",
      "weights" : {

      },
      "pad_mode" : 1,
      "Nx" : 1,
      "pad_value" : 0,
      "Ny" : 1,
      "n_parallel" : 1
    },
    {
      "pad_r" : 0,
      "fused_relu" : 0,
      "fused_tanh" : 0,
      "pad_fill_mode" : 0,
      "pad_b" : 0,
      "pad_l" : 0,
      "top" : "separable_conv_1_normal_right2_1_output_intermin_",
      "blob_weights" : 235,
      "K" : 44,
      "name" : "separable_conv_1_normal_right2_1_step_1",
      "has_batch_norm" : 0,
      "type" : "convolution",
      "n_groups" : 44,
      "pad_t" : 0,
      "has_biases" : 0,
      "C" : 44,
      "bottom" : "activation_42_output",
      "weights" : {

      },
      "pad_mode" : 1,
      "Nx" : 3,
      "pad_value" : 0,
      "Ny" : 3,
      "n_parallel" : 1
    },
    {
      "pad_r" : 0,
      "fused_relu" : 1,
      "fused_tanh" : 0,
      "pad_fill_mode" : 0,
      "pad_b" : 0,
      "pad_l" : 0,
      "top" : "activation_43_output",
      "blob_weights" : 239,
      "K" : 44,
      "blob_biases" : 237,
      "name" : "separable_conv_1_normal_right2_1_step_2",
      "has_batch_norm" : 0,
      "type" : "convolution",
      "n_groups" : 1,
      "pad_t" : 0,
      "has_biases" : 1,
      "C" : 44,
      "bottom" : "separable_conv_1_normal_right2_1_output_intermin_",
      "weights" : {

      },
      "pad_mode" : 1,
      "Nx" : 1,
      "pad_value" : 0,
      "Ny" : 1,
      "n_parallel" : 1
    },
    {
      "pad_r" : 0,
      "fused_relu" : 0,
      "fused_tanh" : 0,
      "pad_fill_mode" : 0,
      "pad_b" : 0,
      "pad_l" : 0,
      "top" : "separable_conv_1_normal_left5_1_output_intermin_",
      "blob_weights" : 241,
      "K" : 44,
      "name" : "separable_conv_1_normal_left5_1_step_1",
      "has_batch_norm" : 0,
      "type" : "convolution",
      "n_groups" : 44,
      "pad_t" : 0,
      "has_biases" : 0,
      "C" : 44,
      "bottom" : "activation_44_output",
      "weights" : {

      },
      "pad_mode" : 1,
      "Nx" : 3,
      "pad_value" : 0,
      "Ny" : 3,
      "n_parallel" : 1
    },
    {
      "pad_r" : 0,
      "fused_relu" : 1,
      "fused_tanh" : 0,
      "pad_fill_mode" : 0,
      "pad_b" : 0,
      "pad_l" : 0,
      "top" : "activation_45_output",
      "blob_weights" : 245,
      "K" : 44,
      "blob_biases" : 243,
      "name" : "separable_conv_1_normal_left5_1_step_2",
      "has_batch_norm" : 0,
      "type" : "convolution",
      "n_groups" : 1,
      "pad_t" : 0,
      "has_biases" : 1,
      "C" : 44,
      "bottom" : "separable_conv_1_normal_left5_1_output_intermin_",
      "weights" : {

      },
      "pad_mode" : 1,
      "Nx" : 1,
      "pad_value" : 0,
      "Ny" : 1,
      "n_parallel" : 1
    },
    {
      "pad_r" : 0,
      "fused_relu" : 0,
      "fused_tanh" : 0,
      "pad_fill_mode" : 0,
      "pad_b" : 0,
      "pad_l" : 0,
      "top" : "separable_conv_2_normal_left1_1_output_intermin_",
      "blob_weights" : 247,
      "K" : 44,
      "name" : "separable_conv_2_normal_left1_1_step_1",
      "has_batch_norm" : 0,
      "type" : "convolution",
      "n_groups" : 44,
      "pad_t" : 0,
      "has_biases" : 0,
      "C" : 44,
      "bottom" : "activation_37_output",
      "weights" : {

      },
      "pad_mode" : 1,
      "Nx" : 5,
      "pad_value" : 0,
      "Ny" : 5,
      "n_parallel" : 1
    },
    {
      "pad_r" : 0,
      "fused_relu" : 0,
      "fused_tanh" : 0,
      "pad_fill_mode" : 0,
      "pad_b" : 0,
      "pad_l" : 0,
      "top" : "separable_conv_2_bn_normal_left1_1_output",
      "blob_weights" : 251,
      "K" : 44,
      "blob_biases" : 249,
      "name" : "separable_conv_2_normal_left1_1_step_2",
      "has_batch_norm" : 0,
      "type" : "convolution",
      "n_groups" : 1,
      "pad_t" : 0,
      "has_biases" : 1,
      "C" : 44,
      "bottom" : "separable_conv_2_normal_left1_1_output_intermin_",
      "weights" : {

      },
      "pad_mode" : 1,
      "Nx" : 1,
      "pad_value" : 0,
      "Ny" : 1,
      "n_parallel" : 1
    },
    {
      "pad_r" : 0,
      "fused_relu" : 0,
      "fused_tanh" : 0,
      "pad_fill_mode" : 0,
      "pad_b" : 0,
      "pad_l" : 0,
      "top" : "separable_conv_2_normal_right1_1_output_intermin_",
      "blob_weights" : 253,
      "K" : 44,
      "name" : "separable_conv_2_normal_right1_1_step_1",
      "has_batch_norm" : 0,
      "type" : "convolution",
      "n_groups" : 44,
      "pad_t" : 0,
      "has_biases" : 0,
      "C" : 44,
      "bottom" : "activation_39_output",
      "weights" : {

      },
      "pad_mode" : 1,
      "Nx" : 3,
      "pad_value" : 0,
      "Ny" : 3,
      "n_parallel" : 1
    },
    {
      "pad_r" : 0,
      "fused_relu" : 0,
      "fused_tanh" : 0,
      "pad_fill_mode" : 0,
      "pad_b" : 0,
      "pad_l" : 0,
      "top" : "separable_conv_2_bn_normal_right1_1_output",
      "blob_weights" : 257,
      "K" : 44,
      "blob_biases" : 255,
      "name" : "separable_conv_2_normal_right1_1_step_2",
      "has_batch_norm" : 0,
      "type" : "convolution",
      "n_groups" : 1,
      "pad_t" : 0,
      "has_biases" : 1,
      "C" : 44,
      "bottom" : "separable_conv_2_normal_right1_1_output_intermin_",
      "weights" : {

      },
      "pad_mode" : 1,
      "Nx" : 1,
      "pad_value" : 0,
      "Ny" : 1,
      "n_parallel" : 1
    },
    {
      "pad_r" : 0,
      "fused_relu" : 0,
      "fused_tanh" : 0,
      "pad_fill_mode" : 0,
      "pad_b" : 0,
      "pad_l" : 0,
      "top" : "separable_conv_2_normal_left2_1_output_intermin_",
      "blob_weights" : 259,
      "K" : 44,
      "name" : "separable_conv_2_normal_left2_1_step_1",
      "has_batch_norm" : 0,
      "type" : "convolution",
      "n_groups" : 44,
      "pad_t" : 0,
      "has_biases" : 0,
      "C" : 44,
      "bottom" : "activation_41_output",
      "weights" : {

      },
      "pad_mode" : 1,
      "Nx" : 5,
      "pad_value" : 0,
      "Ny" : 5,
      "n_parallel" : 1
    },
    {
      "pad_r" : 0,
      "fused_relu" : 0,
      "fused_tanh" : 0,
      "pad_fill_mode" : 0,
      "pad_b" : 0,
      "pad_l" : 0,
      "top" : "separable_conv_2_bn_normal_left2_1_output",
      "blob_weights" : 263,
      "K" : 44,
      "blob_biases" : 261,
      "name" : "separable_conv_2_normal_left2_1_step_2",
      "has_batch_norm" : 0,
      "type" : "convolution",
      "n_groups" : 1,
      "pad_t" : 0,
      "has_biases" : 1,
      "C" : 44,
      "bottom" : "separable_conv_2_normal_left2_1_output_intermin_",
      "weights" : {

      },
      "pad_mode" : 1,
      "Nx" : 1,
      "pad_value" : 0,
      "Ny" : 1,
      "n_parallel" : 1
    },
    {
      "pad_r" : 0,
      "fused_relu" : 0,
      "fused_tanh" : 0,
      "pad_fill_mode" : 0,
      "pad_b" : 0,
      "pad_l" : 0,
      "top" : "separable_conv_2_normal_right2_1_output_intermin_",
      "blob_weights" : 265,
      "K" : 44,
      "name" : "separable_conv_2_normal_right2_1_step_1",
      "has_batch_norm" : 0,
      "type" : "convolution",
      "n_groups" : 44,
      "pad_t" : 0,
      "has_biases" : 0,
      "C" : 44,
      "bottom" : "activation_43_output",
      "weights" : {

      },
      "pad_mode" : 1,
      "Nx" : 3,
      "pad_value" : 0,
      "Ny" : 3,
      "n_parallel" : 1
    },
    {
      "pad_r" : 0,
      "fused_relu" : 0,
      "fused_tanh" : 0,
      "pad_fill_mode" : 0,
      "pad_b" : 0,
      "pad_l" : 0,
      "top" : "separable_conv_2_bn_normal_right2_1_output",
      "blob_weights" : 269,
      "K" : 44,
      "blob_biases" : 267,
      "name" : "separable_conv_2_normal_right2_1_step_2",
      "has_batch_norm" : 0,
      "type" : "convolution",
      "n_groups" : 1,
      "pad_t" : 0,
      "has_biases" : 1,
      "C" : 44,
      "bottom" : "separable_conv_2_normal_right2_1_output_intermin_",
      "weights" : {

      },
      "pad_mode" : 1,
      "Nx" : 1,
      "pad_value" : 0,
      "Ny" : 1,
      "n_parallel" : 1
    },
    {
      "pad_r" : 0,
      "fused_relu" : 0,
      "fused_tanh" : 0,
      "pad_fill_mode" : 0,
      "pad_b" : 0,
      "pad_l" : 0,
      "top" : "separable_conv_2_normal_left5_1_output_intermin_",
      "blob_weights" : 271,
      "K" : 44,
      "name" : "separable_conv_2_normal_left5_1_step_1",
      "has_batch_norm" : 0,
      "type" : "convolution",
      "n_groups" : 44,
      "pad_t" : 0,
      "has_biases" : 0,
      "C" : 44,
      "bottom" : "activation_45_output",
      "weights" : {

      },
      "pad_mode" : 1,
      "Nx" : 3,
      "pad_value" : 0,
      "Ny" : 3,
      "n_parallel" : 1
    },
    {
      "pad_r" : 0,
      "fused_relu" : 0,
      "fused_tanh" : 0,
      "pad_fill_mode" : 0,
      "pad_b" : 0,
      "pad_l" : 0,
      "top" : "separable_conv_2_bn_normal_left5_1_output",
      "blob_weights" : 275,
      "K" : 44,
      "blob_biases" : 273,
      "name" : "separable_conv_2_normal_left5_1_step_2",
      "has_batch_norm" : 0,
      "type" : "convolution",
      "n_groups" : 1,
      "pad_t" : 0,
      "has_biases" : 1,
      "C" : 44,
      "bottom" : "separable_conv_2_normal_left5_1_output_intermin_",
      "weights" : {

      },
      "pad_mode" : 1,
      "Nx" : 1,
      "pad_value" : 0,
      "Ny" : 1,
      "n_parallel" : 1
    },
    {
      "pad_value" : 0,
      "average_count_exclude_padding" : 1,
      "top_shape_style" : 0,
      "avg_or_max" : 0,
      "stride_x" : 1,
      "pad_mode" : 1,
      "stride_y" : 1,
      "pad_t" : 0,
      "weights" : {

      },
      "size_y" : 3,
      "type" : "pool",
      "pad_r" : 0,
      "pad_b" : 0,
      "size_x" : 3,
      "pad_fill_mode" : 0,
      "bottom" : "normal_bn_1_1_output",
      "pad_l" : 0,
      "name" : "normal_left3_1",
      "top" : "normal_left3_1_output"
    },
    {
      "pad_value" : 0,
      "average_count_exclude_padding" : 1,
      "top_shape_style" : 0,
      "avg_or_max" : 0,
      "stride_x" : 1,
      "pad_mode" : 1,
      "stride_y" : 1,
      "pad_t" : 0,
      "weights" : {

      },
      "size_y" : 3,
      "type" : "pool",
      "pad_r" : 0,
      "pad_b" : 0,
      "size_x" : 3,
      "pad_fill_mode" : 0,
      "bottom" : "adjust_bn_1_output",
      "pad_l" : 0,
      "name" : "normal_left4_1",
      "top" : "normal_left4_1_output"
    },
    {
      "pad_value" : 0,
      "average_count_exclude_padding" : 1,
      "top_shape_style" : 0,
      "avg_or_max" : 0,
      "stride_x" : 1,
      "pad_mode" : 1,
      "stride_y" : 1,
      "pad_t" : 0,
      "weights" : {

      },
      "size_y" : 3,
      "type" : "pool",
      "pad_r" : 0,
      "pad_b" : 0,
      "size_x" : 3,
      "pad_fill_mode" : 0,
      "bottom" : "adjust_bn_1_output",
      "pad_l" : 0,
      "name" : "normal_right4_1",
      "top" : "normal_right4_1_output"
    },
    {
      "alpha" : 1,
      "bottom" : "separable_conv_2_bn_normal_left1_1_output,separable_conv_2_bn_normal_right1_1_output",
      "operation" : 0,
      "weights" : {

      },
      "fused_relu" : 0,
      "top" : "normal_add_1_1_output",
      "type" : "elementwise",
      "name" : "normal_add_1_1",
      "beta" : 0
    },
    {
      "alpha" : 1,
      "bottom" : "separable_conv_2_bn_normal_left2_1_output,separable_conv_2_bn_normal_right2_1_output",
      "operation" : 0,
      "weights" : {

      },
      "fused_relu" : 0,
      "top" : "normal_add_2_1_output",
      "type" : "elementwise",
      "name" : "normal_add_2_1",
      "beta" : 0
    },
    {
      "alpha" : 1,
      "bottom" : "normal_left3_1_output,adjust_bn_1_output",
      "operation" : 0,
      "weights" : {

      },
      "fused_relu" : 0,
      "top" : "normal_add_3_1_output",
      "type" : "elementwise",
      "name" : "normal_add_3_1",
      "beta" : 0
    },
    {
      "alpha" : 1,
      "bottom" : "normal_left4_1_output,normal_right4_1_output",
      "operation" : 0,
      "weights" : {

      },
      "fused_relu" : 0,
      "top" : "normal_add_4_1_output",
      "type" : "elementwise",
      "name" : "normal_add_4_1",
      "beta" : 0
    },
    {
      "alpha" : 1,
      "bottom" : "separable_conv_2_bn_normal_left5_1_output,normal_bn_1_1_output",
      "operation" : 0,
      "weights" : {

      },
      "fused_relu" : 0,
      "top" : "normal_add_5_1_output",
      "type" : "elementwise",
      "name" : "normal_add_5_1",
      "beta" : 0
    },
    {
      "weights" : {

      },
      "top" : "normal_concat_1_output",
      "type" : "concat",
      "name" : "normal_concat_1",
      "bottom" : "adjust_bn_1_output,normal_add_1_1_output,normal_add_2_1_output,normal_add_3_1_output,normal_add_4_1_output,normal_add_5_1_output"
    },
    {
      "mode" : 0,
      "weights" : {

      },
      "top" : "activation_46_output",
      "type" : "activation",
      "name" : "activation_46",
      "bottom" : "normal_concat_0_output"
    },
    {
      "mode" : 0,
      "weights" : {

      },
      "top" : "activation_47_output",
      "type" : "activation",
      "name" : "activation_47",
      "bottom" : "normal_concat_1_output"
    },
    {
      "pad_r" : 0,
      "fused_relu" : 0,
      "fused_tanh" : 0,
      "pad_fill_mode" : 0,
      "pad_b" : 0,
      "pad_l" : 0,
      "top" : "adjust_bn_2_output",
      "blob_weights" : 279,
      "K" : 264,
      "blob_biases" : 277,
      "name" : "adjust_conv_projection_2",
      "has_batch_norm" : 0,
      "type" : "convolution",
      "n_groups" : 1,
      "pad_t" : 0,
      "has_biases" : 1,
      "C" : 44,
      "bottom" : "activation_46_output",
      "weights" : {

      },
      "pad_mode" : 1,
      "Nx" : 1,
      "pad_value" : 0,
      "Ny" : 1,
      "n_parallel" : 1
    },
    {
      "pad_r" : 0,
      "fused_relu" : 0,
      "fused_tanh" : 0,
      "pad_fill_mode" : 0,
      "pad_b" : 0,
      "pad_l" : 0,
      "top" : "normal_bn_1_2_output",
      "blob_weights" : 283,
      "K" : 264,
      "blob_biases" : 281,
      "name" : "normal_conv_1_2",
      "has_batch_norm" : 0,
      "type" : "convolution",
      "n_groups" : 1,
      "pad_t" : 0,
      "has_biases" : 1,
      "C" : 44,
      "bottom" : "activation_47_output",
      "weights" : {

      },
      "pad_mode" : 1,
      "Nx" : 1,
      "pad_value" : 0,
      "Ny" : 1,
      "n_parallel" : 1
    },
    {
      "mode" : 0,
      "weights" : {

      },
      "top" : "activation_48_output",
      "type" : "activation",
      "name" : "activation_48",
      "bottom" : "normal_bn_1_2_output"
    },
    {
      "mode" : 0,
      "weights" : {

      },
      "top" : "activation_50_output",
      "type" : "activation",
      "name" : "activation_50",
      "bottom" : "adjust_bn_2_output"
    },
    {
      "mode" : 0,
      "weights" : {

      },
      "top" : "activation_52_output",
      "type" : "activation",
      "name" : "activation_52",
      "bottom" : "adjust_bn_2_output"
    },
    {
      "mode" : 0,
      "weights" : {

      },
      "top" : "activation_54_output",
      "type" : "activation",
      "name" : "activation_54",
      "bottom" : "adjust_bn_2_output"
    },
    {
      "mode" : 0,
      "weights" : {

      },
      "top" : "activation_56_output",
      "type" : "activation",
      "name" : "activation_56",
      "bottom" : "normal_bn_1_2_output"
    },
    {
      "pad_r" : 0,
      "fused_relu" : 0,
      "fused_tanh" : 0,
      "pad_fill_mode" : 0,
      "pad_b" : 0,
      "pad_l" : 0,
      "top" : "separable_conv_1_normal_left1_2_output_intermin_",
      "blob_weights" : 285,
      "K" : 44,
      "name" : "separable_conv_1_normal_left1_2_step_1",
      "has_batch_norm" : 0,
      "type" : "convolution",
      "n_groups" : 44,
      "pad_t" : 0,
      "has_biases" : 0,
      "C" : 44,
      "bottom" : "activation_48_output",
      "weights" : {

      },
      "pad_mode" : 1,
      "Nx" : 5,
      "pad_value" : 0,
      "Ny" : 5,
      "n_parallel" : 1
    },
    {
      "pad_r" : 0,
      "fused_relu" : 1,
      "fused_tanh" : 0,
      "pad_fill_mode" : 0,
      "pad_b" : 0,
      "pad_l" : 0,
      "top" : "activation_49_output",
      "blob_weights" : 289,
      "K" : 44,
      "blob_biases" : 287,
      "name" : "separable_conv_1_normal_left1_2_step_2",
      "has_batch_norm" : 0,
      "type" : "convolution",
      "n_groups" : 1,
      "pad_t" : 0,
      "has_biases" : 1,
      "C" : 44,
      "bottom" : "separable_conv_1_normal_left1_2_output_intermin_",
      "weights" : {

      },
      "pad_mode" : 1,
      "Nx" : 1,
      "pad_value" : 0,
      "Ny" : 1,
      "n_parallel" : 1
    },
    {
      "pad_r" : 0,
      "fused_relu" : 0,
      "fused_tanh" : 0,
      "pad_fill_mode" : 0,
      "pad_b" : 0,
      "pad_l" : 0,
      "top" : "separable_conv_1_normal_right1_2_output_intermin_",
      "blob_weights" : 291,
      "K" : 44,
      "name" : "separable_conv_1_normal_right1_2_step_1",
      "has_batch_norm" : 0,
      "type" : "convolution",
      "n_groups" : 44,
      "pad_t" : 0,
      "has_biases" : 0,
      "C" : 44,
      "bottom" : "activation_50_output",
      "weights" : {

      },
      "pad_mode" : 1,
      "Nx" : 3,
      "pad_value" : 0,
      "Ny" : 3,
      "n_parallel" : 1
    },
    {
      "pad_r" : 0,
      "fused_relu" : 1,
      "fused_tanh" : 0,
      "pad_fill_mode" : 0,
      "pad_b" : 0,
      "pad_l" : 0,
      "top" : "activation_51_output",
      "blob_weights" : 295,
      "K" : 44,
      "blob_biases" : 293,
      "name" : "separable_conv_1_normal_right1_2_step_2",
      "has_batch_norm" : 0,
      "type" : "convolution",
      "n_groups" : 1,
      "pad_t" : 0,
      "has_biases" : 1,
      "C" : 44,
      "bottom" : "separable_conv_1_normal_right1_2_output_intermin_",
      "weights" : {

      },
      "pad_mode" : 1,
      "Nx" : 1,
      "pad_value" : 0,
      "Ny" : 1,
      "n_parallel" : 1
    },
    {
      "pad_r" : 0,
      "fused_relu" : 0,
      "fused_tanh" : 0,
      "pad_fill_mode" : 0,
      "pad_b" : 0,
      "pad_l" : 0,
      "top" : "separable_conv_1_normal_left2_2_output_intermin_",
      "blob_weights" : 297,
      "K" : 44,
      "name" : "separable_conv_1_normal_left2_2_step_1",
      "has_batch_norm" : 0,
      "type" : "convolution",
      "n_groups" : 44,
      "pad_t" : 0,
      "has_biases" : 0,
      "C" : 44,
      "bottom" : "activation_52_output",
      "weights" : {

      },
      "pad_mode" : 1,
      "Nx" : 5,
      "pad_value" : 0,
      "Ny" : 5,
      "n_parallel" : 1
    },
    {
      "pad_r" : 0,
      "fused_relu" : 1,
      "fused_tanh" : 0,
      "pad_fill_mode" : 0,
      "pad_b" : 0,
      "pad_l" : 0,
      "top" : "activation_53_output",
      "blob_weights" : 301,
      "K" : 44,
      "blob_biases" : 299,
      "name" : "separable_conv_1_normal_left2_2_step_2",
      "has_batch_norm" : 0,
      "type" : "convolution",
      "n_groups" : 1,
      "pad_t" : 0,
      "has_biases" : 1,
      "C" : 44,
      "bottom" : "separable_conv_1_normal_left2_2_output_intermin_",
      "weights" : {

      },
      "pad_mode" : 1,
      "Nx" : 1,
      "pad_value" : 0,
      "Ny" : 1,
      "n_parallel" : 1
    },
    {
      "pad_r" : 0,
      "fused_relu" : 0,
      "fused_tanh" : 0,
      "pad_fill_mode" : 0,
      "pad_b" : 0,
      "pad_l" : 0,
      "top" : "separable_conv_1_normal_right2_2_output_intermin_",
      "blob_weights" : 303,
      "K" : 44,
      "name" : "separable_conv_1_normal_right2_2_step_1",
      "has_batch_norm" : 0,
      "type" : "convolution",
      "n_groups" : 44,
      "pad_t" : 0,
      "has_biases" : 0,
      "C" : 44,
      "bottom" : "activation_54_output",
      "weights" : {

      },
      "pad_mode" : 1,
      "Nx" : 3,
      "pad_value" : 0,
      "Ny" : 3,
      "n_parallel" : 1
    },
    {
      "pad_r" : 0,
      "fused_relu" : 1,
      "fused_tanh" : 0,
      "pad_fill_mode" : 0,
      "pad_b" : 0,
      "pad_l" : 0,
      "top" : "activation_55_output",
      "blob_weights" : 307,
      "K" : 44,
      "blob_biases" : 305,
      "name" : "separable_conv_1_normal_right2_2_step_2",
      "has_batch_norm" : 0,
      "type" : "convolution",
      "n_groups" : 1,
      "pad_t" : 0,
      "has_biases" : 1,
      "C" : 44,
      "bottom" : "separable_conv_1_normal_right2_2_output_intermin_",
      "weights" : {

      },
      "pad_mode" : 1,
      "Nx" : 1,
      "pad_value" : 0,
      "Ny" : 1,
      "n_parallel" : 1
    },
    {
      "pad_r" : 0,
      "fused_relu" : 0,
      "fused_tanh" : 0,
      "pad_fill_mode" : 0,
      "pad_b" : 0,
      "pad_l" : 0,
      "top" : "separable_conv_1_normal_left5_2_output_intermin_",
      "blob_weights" : 309,
      "K" : 44,
      "name" : "separable_conv_1_normal_left5_2_step_1",
      "has_batch_norm" : 0,
      "type" : "convolution",
      "n_groups" : 44,
      "pad_t" : 0,
      "has_biases" : 0,
      "C" : 44,
      "bottom" : "activation_56_output",
      "weights" : {

      },
      "pad_mode" : 1,
      "Nx" : 3,
      "pad_value" : 0,
      "Ny" : 3,
      "n_parallel" : 1
    },
    {
      "pad_r" : 0,
      "fused_relu" : 1,
      "fused_tanh" : 0,
      "pad_fill_mode" : 0,
      "pad_b" : 0,
      "pad_l" : 0,
      "top" : "activation_57_output",
      "blob_weights" : 313,
      "K" : 44,
      "blob_biases" : 311,
      "name" : "separable_conv_1_normal_left5_2_step_2",
      "has_batch_norm" : 0,
      "type" : "convolution",
      "n_groups" : 1,
      "pad_t" : 0,
      "has_biases" : 1,
      "C" : 44,
      "bottom" : "separable_conv_1_normal_left5_2_output_intermin_",
      "weights" : {

      },
      "pad_mode" : 1,
      "Nx" : 1,
      "pad_value" : 0,
      "Ny" : 1,
      "n_parallel" : 1
    },
    {
      "pad_r" : 0,
      "fused_relu" : 0,
      "fused_tanh" : 0,
      "pad_fill_mode" : 0,
      "pad_b" : 0,
      "pad_l" : 0,
      "top" : "separable_conv_2_normal_left1_2_output_intermin_",
      "blob_weights" : 315,
      "K" : 44,
      "name" : "separable_conv_2_normal_left1_2_step_1",
      "has_batch_norm" : 0,
      "type" : "convolution",
      "n_groups" : 44,
      "pad_t" : 0,
      "has_biases" : 0,
      "C" : 44,
      "bottom" : "activation_49_output",
      "weights" : {

      },
      "pad_mode" : 1,
      "Nx" : 5,
      "pad_value" : 0,
      "Ny" : 5,
      "n_parallel" : 1
    },
    {
      "pad_r" : 0,
      "fused_relu" : 0,
      "fused_tanh" : 0,
      "pad_fill_mode" : 0,
      "pad_b" : 0,
      "pad_l" : 0,
      "top" : "separable_conv_2_bn_normal_left1_2_output",
      "blob_weights" : 319,
      "K" : 44,
      "blob_biases" : 317,
      "name" : "separable_conv_2_normal_left1_2_step_2",
      "has_batch_norm" : 0,
      "type" : "convolution",
      "n_groups" : 1,
      "pad_t" : 0,
      "has_biases" : 1,
      "C" : 44,
      "bottom" : "separable_conv_2_normal_left1_2_output_intermin_",
      "weights" : {

      },
      "pad_mode" : 1,
      "Nx" : 1,
      "pad_value" : 0,
      "Ny" : 1,
      "n_parallel" : 1
    },
    {
      "pad_r" : 0,
      "fused_relu" : 0,
      "fused_tanh" : 0,
      "pad_fill_mode" : 0,
      "pad_b" : 0,
      "pad_l" : 0,
      "top" : "separable_conv_2_normal_right1_2_output_intermin_",
      "blob_weights" : 321,
      "K" : 44,
      "name" : "separable_conv_2_normal_right1_2_step_1",
      "has_batch_norm" : 0,
      "type" : "convolution",
      "n_groups" : 44,
      "pad_t" : 0,
      "has_biases" : 0,
      "C" : 44,
      "bottom" : "activation_51_output",
      "weights" : {

      },
      "pad_mode" : 1,
      "Nx" : 3,
      "pad_value" : 0,
      "Ny" : 3,
      "n_parallel" : 1
    },
    {
      "pad_r" : 0,
      "fused_relu" : 0,
      "fused_tanh" : 0,
      "pad_fill_mode" : 0,
      "pad_b" : 0,
      "pad_l" : 0,
      "top" : "separable_conv_2_bn_normal_right1_2_output",
      "blob_weights" : 325,
      "K" : 44,
      "blob_biases" : 323,
      "name" : "separable_conv_2_normal_right1_2_step_2",
      "has_batch_norm" : 0,
      "type" : "convolution",
      "n_groups" : 1,
      "pad_t" : 0,
      "has_biases" : 1,
      "C" : 44,
      "bottom" : "separable_conv_2_normal_right1_2_output_intermin_",
      "weights" : {

      },
      "pad_mode" : 1,
      "Nx" : 1,
      "pad_value" : 0,
      "Ny" : 1,
      "n_parallel" : 1
    },
    {
      "pad_r" : 0,
      "fused_relu" : 0,
      "fused_tanh" : 0,
      "pad_fill_mode" : 0,
      "pad_b" : 0,
      "pad_l" : 0,
      "top" : "separable_conv_2_normal_left2_2_output_intermin_",
      "blob_weights" : 327,
      "K" : 44,
      "name" : "separable_conv_2_normal_left2_2_step_1",
      "has_batch_norm" : 0,
      "type" : "convolution",
      "n_groups" : 44,
      "pad_t" : 0,
      "has_biases" : 0,
      "C" : 44,
      "bottom" : "activation_53_output",
      "weights" : {

      },
      "pad_mode" : 1,
      "Nx" : 5,
      "pad_value" : 0,
      "Ny" : 5,
      "n_parallel" : 1
    },
    {
      "pad_r" : 0,
      "fused_relu" : 0,
      "fused_tanh" : 0,
      "pad_fill_mode" : 0,
      "pad_b" : 0,
      "pad_l" : 0,
      "top" : "separable_conv_2_bn_normal_left2_2_output",
      "blob_weights" : 331,
      "K" : 44,
      "blob_biases" : 329,
      "name" : "separable_conv_2_normal_left2_2_step_2",
      "has_batch_norm" : 0,
      "type" : "convolution",
      "n_groups" : 1,
      "pad_t" : 0,
      "has_biases" : 1,
      "C" : 44,
      "bottom" : "separable_conv_2_normal_left2_2_output_intermin_",
      "weights" : {

      },
      "pad_mode" : 1,
      "Nx" : 1,
      "pad_value" : 0,
      "Ny" : 1,
      "n_parallel" : 1
    },
    {
      "pad_r" : 0,
      "fused_relu" : 0,
      "fused_tanh" : 0,
      "pad_fill_mode" : 0,
      "pad_b" : 0,
      "pad_l" : 0,
      "top" : "separable_conv_2_normal_right2_2_output_intermin_",
      "blob_weights" : 333,
      "K" : 44,
      "name" : "separable_conv_2_normal_right2_2_step_1",
      "has_batch_norm" : 0,
      "type" : "convolution",
      "n_groups" : 44,
      "pad_t" : 0,
      "has_biases" : 0,
      "C" : 44,
      "bottom" : "activation_55_output",
      "weights" : {

      },
      "pad_mode" : 1,
      "Nx" : 3,
      "pad_value" : 0,
      "Ny" : 3,
      "n_parallel" : 1
    },
    {
      "pad_r" : 0,
      "fused_relu" : 0,
      "fused_tanh" : 0,
      "pad_fill_mode" : 0,
      "pad_b" : 0,
      "pad_l" : 0,
      "top" : "separable_conv_2_bn_normal_right2_2_output",
      "blob_weights" : 337,
      "K" : 44,
      "blob_biases" : 335,
      "name" : "separable_conv_2_normal_right2_2_step_2",
      "has_batch_norm" : 0,
      "type" : "convolution",
      "n_groups" : 1,
      "pad_t" : 0,
      "has_biases" : 1,
      "C" : 44,
      "bottom" : "separable_conv_2_normal_right2_2_output_intermin_",
      "weights" : {

      },
      "pad_mode" : 1,
      "Nx" : 1,
      "pad_value" : 0,
      "Ny" : 1,
      "n_parallel" : 1
    },
    {
      "pad_r" : 0,
      "fused_relu" : 0,
      "fused_tanh" : 0,
      "pad_fill_mode" : 0,
      "pad_b" : 0,
      "pad_l" : 0,
      "top" : "separable_conv_2_normal_left5_2_output_intermin_",
      "blob_weights" : 339,
      "K" : 44,
      "name" : "separable_conv_2_normal_left5_2_step_1",
      "has_batch_norm" : 0,
      "type" : "convolution",
      "n_groups" : 44,
      "pad_t" : 0,
      "has_biases" : 0,
      "C" : 44,
      "bottom" : "activation_57_output",
      "weights" : {

      },
      "pad_mode" : 1,
      "Nx" : 3,
      "pad_value" : 0,
      "Ny" : 3,
      "n_parallel" : 1
    },
    {
      "pad_r" : 0,
      "fused_relu" : 0,
      "fused_tanh" : 0,
      "pad_fill_mode" : 0,
      "pad_b" : 0,
      "pad_l" : 0,
      "top" : "separable_conv_2_bn_normal_left5_2_output",
      "blob_weights" : 343,
      "K" : 44,
      "blob_biases" : 341,
      "name" : "separable_conv_2_normal_left5_2_step_2",
      "has_batch_norm" : 0,
      "type" : "convolution",
      "n_groups" : 1,
      "pad_t" : 0,
      "has_biases" : 1,
      "C" : 44,
      "bottom" : "separable_conv_2_normal_left5_2_output_intermin_",
      "weights" : {

      },
      "pad_mode" : 1,
      "Nx" : 1,
      "pad_value" : 0,
      "Ny" : 1,
      "n_parallel" : 1
    },
    {
      "pad_value" : 0,
      "average_count_exclude_padding" : 1,
      "top_shape_style" : 0,
      "avg_or_max" : 0,
      "stride_x" : 1,
      "pad_mode" : 1,
      "stride_y" : 1,
      "pad_t" : 0,
      "weights" : {

      },
      "size_y" : 3,
      "type" : "pool",
      "pad_r" : 0,
      "pad_b" : 0,
      "size_x" : 3,
      "pad_fill_mode" : 0,
      "bottom" : "normal_bn_1_2_output",
      "pad_l" : 0,
      "name" : "normal_left3_2",
      "top" : "normal_left3_2_output"
    },
    {
      "pad_value" : 0,
      "average_count_exclude_padding" : 1,
      "top_shape_style" : 0,
      "avg_or_max" : 0,
      "stride_x" : 1,
      "pad_mode" : 1,
      "stride_y" : 1,
      "pad_t" : 0,
      "weights" : {

      },
      "size_y" : 3,
      "type" : "pool",
      "pad_r" : 0,
      "pad_b" : 0,
      "size_x" : 3,
      "pad_fill_mode" : 0,
      "bottom" : "adjust_bn_2_output",
      "pad_l" : 0,
      "name" : "normal_left4_2",
      "top" : "normal_left4_2_output"
    },
    {
      "pad_value" : 0,
      "average_count_exclude_padding" : 1,
      "top_shape_style" : 0,
      "avg_or_max" : 0,
      "stride_x" : 1,
      "pad_mode" : 1,
      "stride_y" : 1,
      "pad_t" : 0,
      "weights" : {

      },
      "size_y" : 3,
      "type" : "pool",
      "pad_r" : 0,
      "pad_b" : 0,
      "size_x" : 3,
      "pad_fill_mode" : 0,
      "bottom" : "adjust_bn_2_output",
      "pad_l" : 0,
      "name" : "normal_right4_2",
      "top" : "normal_right4_2_output"
    },
    {
      "alpha" : 1,
      "bottom" : "separable_conv_2_bn_normal_left1_2_output,separable_conv_2_bn_normal_right1_2_output",
      "operation" : 0,
      "weights" : {

      },
      "fused_relu" : 0,
      "top" : "normal_add_1_2_output",
      "type" : "elementwise",
      "name" : "normal_add_1_2",
      "beta" : 0
    },
    {
      "alpha" : 1,
      "bottom" : "separable_conv_2_bn_normal_left2_2_output,separable_conv_2_bn_normal_right2_2_output",
      "operation" : 0,
      "weights" : {

      },
      "fused_relu" : 0,
      "top" : "normal_add_2_2_output",
      "type" : "elementwise",
      "name" : "normal_add_2_2",
      "beta" : 0
    },
    {
      "alpha" : 1,
      "bottom" : "normal_left3_2_output,adjust_bn_2_output",
      "operation" : 0,
      "weights" : {

      },
      "fused_relu" : 0,
      "top" : "normal_add_3_2_output",
      "type" : "elementwise",
      "name" : "normal_add_3_2",
      "beta" : 0
    },
    {
      "alpha" : 1,
      "bottom" : "normal_left4_2_output,normal_right4_2_output",
      "operation" : 0,
      "weights" : {

      },
      "fused_relu" : 0,
      "top" : "normal_add_4_2_output",
      "type" : "elementwise",
      "name" : "normal_add_4_2",
      "beta" : 0
    },
    {
      "alpha" : 1,
      "bottom" : "separable_conv_2_bn_normal_left5_2_output,normal_bn_1_2_output",
      "operation" : 0,
      "weights" : {

      },
      "fused_relu" : 0,
      "top" : "normal_add_5_2_output",
      "type" : "elementwise",
      "name" : "normal_add_5_2",
      "beta" : 0
    },
    {
      "weights" : {

      },
      "top" : "normal_concat_2_output",
      "type" : "concat",
      "name" : "normal_concat_2",
      "bottom" : "adjust_bn_2_output,normal_add_1_2_output,normal_add_2_2_output,normal_add_3_2_output,normal_add_4_2_output,normal_add_5_2_output"
    },
    {
      "mode" : 0,
      "weights" : {

      },
      "top" : "activation_58_output",
      "type" : "activation",
      "name" : "activation_58",
      "bottom" : "normal_concat_1_output"
    },
    {
      "mode" : 0,
      "weights" : {

      },
      "top" : "activation_59_output",
      "type" : "activation",
      "name" : "activation_59",
      "bottom" : "normal_concat_2_output"
    },
    {
      "pad_r" : 0,
      "fused_relu" : 0,
      "fused_tanh" : 0,
      "pad_fill_mode" : 0,
      "pad_b" : 0,
      "pad_l" : 0,
      "top" : "adjust_bn_3_output",
      "blob_weights" : 347,
      "K" : 264,
      "blob_biases" : 345,
      "name" : "adjust_conv_projection_3",
      "has_batch_norm" : 0,
      "type" : "convolution",
      "n_groups" : 1,
      "pad_t" : 0,
      "has_biases" : 1,
      "C" : 44,
      "bottom" : "activation_58_output",
      "weights" : {

      },
      "pad_mode" : 1,
      "Nx" : 1,
      "pad_value" : 0,
      "Ny" : 1,
      "n_parallel" : 1
    },
    {
      "pad_r" : 0,
      "fused_relu" : 0,
      "fused_tanh" : 0,
      "pad_fill_mode" : 0,
      "pad_b" : 0,
      "pad_l" : 0,
      "top" : "normal_bn_1_3_output",
      "blob_weights" : 351,
      "K" : 264,
      "blob_biases" : 349,
      "name" : "normal_conv_1_3",
      "has_batch_norm" : 0,
      "type" : "convolution",
      "n_groups" : 1,
      "pad_t" : 0,
      "has_biases" : 1,
      "C" : 44,
      "bottom" : "activation_59_output",
      "weights" : {

      },
      "pad_mode" : 1,
      "Nx" : 1,
      "pad_value" : 0,
      "Ny" : 1,
      "n_parallel" : 1
    },
    {
      "mode" : 0,
      "weights" : {

      },
      "top" : "activation_60_output",
      "type" : "activation",
      "name" : "activation_60",
      "bottom" : "normal_bn_1_3_output"
    },
    {
      "mode" : 0,
      "weights" : {

      },
      "top" : "activation_62_output",
      "type" : "activation",
      "name" : "activation_62",
      "bottom" : "adjust_bn_3_output"
    },
    {
      "mode" : 0,
      "weights" : {

      },
      "top" : "activation_64_output",
      "type" : "activation",
      "name" : "activation_64",
      "bottom" : "adjust_bn_3_output"
    },
    {
      "mode" : 0,
      "weights" : {

      },
      "top" : "activation_66_output",
      "type" : "activation",
      "name" : "activation_66",
      "bottom" : "adjust_bn_3_output"
    },
    {
      "mode" : 0,
      "weights" : {

      },
      "top" : "activation_68_output",
      "type" : "activation",
      "name" : "activation_68",
      "bottom" : "normal_bn_1_3_output"
    },
    {
      "pad_r" : 0,
      "fused_relu" : 0,
      "fused_tanh" : 0,
      "pad_fill_mode" : 0,
      "pad_b" : 0,
      "pad_l" : 0,
      "top" : "separable_conv_1_normal_left1_3_output_intermin_",
      "blob_weights" : 353,
      "K" : 44,
      "name" : "separable_conv_1_normal_left1_3_step_1",
      "has_batch_norm" : 0,
      "type" : "convolution",
      "n_groups" : 44,
      "pad_t" : 0,
      "has_biases" : 0,
      "C" : 44,
      "bottom" : "activation_60_output",
      "weights" : {

      },
      "pad_mode" : 1,
      "Nx" : 5,
      "pad_value" : 0,
      "Ny" : 5,
      "n_parallel" : 1
    },
    {
      "pad_r" : 0,
      "fused_relu" : 1,
      "fused_tanh" : 0,
      "pad_fill_mode" : 0,
      "pad_b" : 0,
      "pad_l" : 0,
      "top" : "activation_61_output",
      "blob_weights" : 357,
      "K" : 44,
      "blob_biases" : 355,
      "name" : "separable_conv_1_normal_left1_3_step_2",
      "has_batch_norm" : 0,
      "type" : "convolution",
      "n_groups" : 1,
      "pad_t" : 0,
      "has_biases" : 1,
      "C" : 44,
      "bottom" : "separable_conv_1_normal_left1_3_output_intermin_",
      "weights" : {

      },
      "pad_mode" : 1,
      "Nx" : 1,
      "pad_value" : 0,
      "Ny" : 1,
      "n_parallel" : 1
    },
    {
      "pad_r" : 0,
      "fused_relu" : 0,
      "fused_tanh" : 0,
      "pad_fill_mode" : 0,
      "pad_b" : 0,
      "pad_l" : 0,
      "top" : "separable_conv_1_normal_right1_3_output_intermin_",
      "blob_weights" : 359,
      "K" : 44,
      "name" : "separable_conv_1_normal_right1_3_step_1",
      "has_batch_norm" : 0,
      "type" : "convolution",
      "n_groups" : 44,
      "pad_t" : 0,
      "has_biases" : 0,
      "C" : 44,
      "bottom" : "activation_62_output",
      "weights" : {

      },
      "pad_mode" : 1,
      "Nx" : 3,
      "pad_value" : 0,
      "Ny" : 3,
      "n_parallel" : 1
    },
    {
      "pad_r" : 0,
      "fused_relu" : 1,
      "fused_tanh" : 0,
      "pad_fill_mode" : 0,
      "pad_b" : 0,
      "pad_l" : 0,
      "top" : "activation_63_output",
      "blob_weights" : 363,
      "K" : 44,
      "blob_biases" : 361,
      "name" : "separable_conv_1_normal_right1_3_step_2",
      "has_batch_norm" : 0,
      "type" : "convolution",
      "n_groups" : 1,
      "pad_t" : 0,
      "has_biases" : 1,
      "C" : 44,
      "bottom" : "separable_conv_1_normal_right1_3_output_intermin_",
      "weights" : {

      },
      "pad_mode" : 1,
      "Nx" : 1,
      "pad_value" : 0,
      "Ny" : 1,
      "n_parallel" : 1
    },
    {
      "pad_r" : 0,
      "fused_relu" : 0,
      "fused_tanh" : 0,
      "pad_fill_mode" : 0,
      "pad_b" : 0,
      "pad_l" : 0,
      "top" : "separable_conv_1_normal_left2_3_output_intermin_",
      "blob_weights" : 365,
      "K" : 44,
      "name" : "separable_conv_1_normal_left2_3_step_1",
      "has_batch_norm" : 0,
      "type" : "convolution",
      "n_groups" : 44,
      "pad_t" : 0,
      "has_biases" : 0,
      "C" : 44,
      "bottom" : "activation_64_output",
      "weights" : {

      },
      "pad_mode" : 1,
      "Nx" : 5,
      "pad_value" : 0,
      "Ny" : 5,
      "n_parallel" : 1
    },
    {
      "pad_r" : 0,
      "fused_relu" : 1,
      "fused_tanh" : 0,
      "pad_fill_mode" : 0,
      "pad_b" : 0,
      "pad_l" : 0,
      "top" : "activation_65_output",
      "blob_weights" : 369,
      "K" : 44,
      "blob_biases" : 367,
      "name" : "separable_conv_1_normal_left2_3_step_2",
      "has_batch_norm" : 0,
      "type" : "convolution",
      "n_groups" : 1,
      "pad_t" : 0,
      "has_biases" : 1,
      "C" : 44,
      "bottom" : "separable_conv_1_normal_left2_3_output_intermin_",
      "weights" : {

      },
      "pad_mode" : 1,
      "Nx" : 1,
      "pad_value" : 0,
      "Ny" : 1,
      "n_parallel" : 1
    },
    {
      "pad_r" : 0,
      "fused_relu" : 0,
      "fused_tanh" : 0,
      "pad_fill_mode" : 0,
      "pad_b" : 0,
      "pad_l" : 0,
      "top" : "separable_conv_1_normal_right2_3_output_intermin_",
      "blob_weights" : 371,
      "K" : 44,
      "name" : "separable_conv_1_normal_right2_3_step_1",
      "has_batch_norm" : 0,
      "type" : "convolution",
      "n_groups" : 44,
      "pad_t" : 0,
      "has_biases" : 0,
      "C" : 44,
      "bottom" : "activation_66_output",
      "weights" : {

      },
      "pad_mode" : 1,
      "Nx" : 3,
      "pad_value" : 0,
      "Ny" : 3,
      "n_parallel" : 1
    },
    {
      "pad_r" : 0,
      "fused_relu" : 1,
      "fused_tanh" : 0,
      "pad_fill_mode" : 0,
      "pad_b" : 0,
      "pad_l" : 0,
      "top" : "activation_67_output",
      "blob_weights" : 375,
      "K" : 44,
      "blob_biases" : 373,
      "name" : "separable_conv_1_normal_right2_3_step_2",
      "has_batch_norm" : 0,
      "type" : "convolution",
      "n_groups" : 1,
      "pad_t" : 0,
      "has_biases" : 1,
      "C" : 44,
      "bottom" : "separable_conv_1_normal_right2_3_output_intermin_",
      "weights" : {

      },
      "pad_mode" : 1,
      "Nx" : 1,
      "pad_value" : 0,
      "Ny" : 1,
      "n_parallel" : 1
    },
    {
      "pad_r" : 0,
      "fused_relu" : 0,
      "fused_tanh" : 0,
      "pad_fill_mode" : 0,
      "pad_b" : 0,
      "pad_l" : 0,
      "top" : "separable_conv_1_normal_left5_3_output_intermin_",
      "blob_weights" : 377,
      "K" : 44,
      "name" : "separable_conv_1_normal_left5_3_step_1",
      "has_batch_norm" : 0,
      "type" : "convolution",
      "n_groups" : 44,
      "pad_t" : 0,
      "has_biases" : 0,
      "C" : 44,
      "bottom" : "activation_68_output",
      "weights" : {

      },
      "pad_mode" : 1,
      "Nx" : 3,
      "pad_value" : 0,
      "Ny" : 3,
      "n_parallel" : 1
    },
    {
      "pad_r" : 0,
      "fused_relu" : 1,
      "fused_tanh" : 0,
      "pad_fill_mode" : 0,
      "pad_b" : 0,
      "pad_l" : 0,
      "top" : "activation_69_output",
      "blob_weights" : 381,
      "K" : 44,
      "blob_biases" : 379,
      "name" : "separable_conv_1_normal_left5_3_step_2",
      "has_batch_norm" : 0,
      "type" : "convolution",
      "n_groups" : 1,
      "pad_t" : 0,
      "has_biases" : 1,
      "C" : 44,
      "bottom" : "separable_conv_1_normal_left5_3_output_intermin_",
      "weights" : {

      },
      "pad_mode" : 1,
      "Nx" : 1,
      "pad_value" : 0,
      "Ny" : 1,
      "n_parallel" : 1
    },
    {
      "pad_r" : 0,
      "fused_relu" : 0,
      "fused_tanh" : 0,
      "pad_fill_mode" : 0,
      "pad_b" : 0,
      "pad_l" : 0,
      "top" : "separable_conv_2_normal_left1_3_output_intermin_",
      "blob_weights" : 383,
      "K" : 44,
      "name" : "separable_conv_2_normal_left1_3_step_1",
      "has_batch_norm" : 0,
      "type" : "convolution",
      "n_groups" : 44,
      "pad_t" : 0,
      "has_biases" : 0,
      "C" : 44,
      "bottom" : "activation_61_output",
      "weights" : {

      },
      "pad_mode" : 1,
      "Nx" : 5,
      "pad_value" : 0,
      "Ny" : 5,
      "n_parallel" : 1
    },
    {
      "pad_r" : 0,
      "fused_relu" : 0,
      "fused_tanh" : 0,
      "pad_fill_mode" : 0,
      "pad_b" : 0,
      "pad_l" : 0,
      "top" : "separable_conv_2_bn_normal_left1_3_output",
      "blob_weights" : 387,
      "K" : 44,
      "blob_biases" : 385,
      "name" : "separable_conv_2_normal_left1_3_step_2",
      "has_batch_norm" : 0,
      "type" : "convolution",
      "n_groups" : 1,
      "pad_t" : 0,
      "has_biases" : 1,
      "C" : 44,
      "bottom" : "separable_conv_2_normal_left1_3_output_intermin_",
      "weights" : {

      },
      "pad_mode" : 1,
      "Nx" : 1,
      "pad_value" : 0,
      "Ny" : 1,
      "n_parallel" : 1
    },
    {
      "pad_r" : 0,
      "fused_relu" : 0,
      "fused_tanh" : 0,
      "pad_fill_mode" : 0,
      "pad_b" : 0,
      "pad_l" : 0,
      "top" : "separable_conv_2_normal_right1_3_output_intermin_",
      "blob_weights" : 389,
      "K" : 44,
      "name" : "separable_conv_2_normal_right1_3_step_1",
      "has_batch_norm" : 0,
      "type" : "convolution",
      "n_groups" : 44,
      "pad_t" : 0,
      "has_biases" : 0,
      "C" : 44,
      "bottom" : "activation_63_output",
      "weights" : {

      },
      "pad_mode" : 1,
      "Nx" : 3,
      "pad_value" : 0,
      "Ny" : 3,
      "n_parallel" : 1
    },
    {
      "pad_r" : 0,
      "fused_relu" : 0,
      "fused_tanh" : 0,
      "pad_fill_mode" : 0,
      "pad_b" : 0,
      "pad_l" : 0,
      "top" : "separable_conv_2_bn_normal_right1_3_output",
      "blob_weights" : 393,
      "K" : 44,
      "blob_biases" : 391,
      "name" : "separable_conv_2_normal_right1_3_step_2",
      "has_batch_norm" : 0,
      "type" : "convolution",
      "n_groups" : 1,
      "pad_t" : 0,
      "has_biases" : 1,
      "C" : 44,
      "bottom" : "separable_conv_2_normal_right1_3_output_intermin_",
      "weights" : {

      },
      "pad_mode" : 1,
      "Nx" : 1,
      "pad_value" : 0,
      "Ny" : 1,
      "n_parallel" : 1
    },
    {
      "pad_r" : 0,
      "fused_relu" : 0,
      "fused_tanh" : 0,
      "pad_fill_mode" : 0,
      "pad_b" : 0,
      "pad_l" : 0,
      "top" : "separable_conv_2_normal_left2_3_output_intermin_",
      "blob_weights" : 395,
      "K" : 44,
      "name" : "separable_conv_2_normal_left2_3_step_1",
      "has_batch_norm" : 0,
      "type" : "convolution",
      "n_groups" : 44,
      "pad_t" : 0,
      "has_biases" : 0,
      "C" : 44,
      "bottom" : "activation_65_output",
      "weights" : {

      },
      "pad_mode" : 1,
      "Nx" : 5,
      "pad_value" : 0,
      "Ny" : 5,
      "n_parallel" : 1
    },
    {
      "pad_r" : 0,
      "fused_relu" : 0,
      "fused_tanh" : 0,
      "pad_fill_mode" : 0,
      "pad_b" : 0,
      "pad_l" : 0,
      "top" : "separable_conv_2_bn_normal_left2_3_output",
      "blob_weights" : 399,
      "K" : 44,
      "blob_biases" : 397,
      "name" : "separable_conv_2_normal_left2_3_step_2",
      "has_batch_norm" : 0,
      "type" : "convolution",
      "n_groups" : 1,
      "pad_t" : 0,
      "has_biases" : 1,
      "C" : 44,
      "bottom" : "separable_conv_2_normal_left2_3_output_intermin_",
      "weights" : {

      },
      "pad_mode" : 1,
      "Nx" : 1,
      "pad_value" : 0,
      "Ny" : 1,
      "n_parallel" : 1
    },
    {
      "pad_r" : 0,
      "fused_relu" : 0,
      "fused_tanh" : 0,
      "pad_fill_mode" : 0,
      "pad_b" : 0,
      "pad_l" : 0,
      "top" : "separable_conv_2_normal_right2_3_output_intermin_",
      "blob_weights" : 401,
      "K" : 44,
      "name" : "separable_conv_2_normal_right2_3_step_1",
      "has_batch_norm" : 0,
      "type" : "convolution",
      "n_groups" : 44,
      "pad_t" : 0,
      "has_biases" : 0,
      "C" : 44,
      "bottom" : "activation_67_output",
      "weights" : {

      },
      "pad_mode" : 1,
      "Nx" : 3,
      "pad_value" : 0,
      "Ny" : 3,
      "n_parallel" : 1
    },
    {
      "pad_r" : 0,
      "fused_relu" : 0,
      "fused_tanh" : 0,
      "pad_fill_mode" : 0,
      "pad_b" : 0,
      "pad_l" : 0,
      "top" : "separable_conv_2_bn_normal_right2_3_output",
      "blob_weights" : 405,
      "K" : 44,
      "blob_biases" : 403,
      "name" : "separable_conv_2_normal_right2_3_step_2",
      "has_batch_norm" : 0,
      "type" : "convolution",
      "n_groups" : 1,
      "pad_t" : 0,
      "has_biases" : 1,
      "C" : 44,
      "bottom" : "separable_conv_2_normal_right2_3_output_intermin_",
      "weights" : {

      },
      "pad_mode" : 1,
      "Nx" : 1,
      "pad_value" : 0,
      "Ny" : 1,
      "n_parallel" : 1
    },
    {
      "pad_r" : 0,
      "fused_relu" : 0,
      "fused_tanh" : 0,
      "pad_fill_mode" : 0,
      "pad_b" : 0,
      "pad_l" : 0,
      "top" : "separable_conv_2_normal_left5_3_output_intermin_",
      "blob_weights" : 407,
      "K" : 44,
      "name" : "separable_conv_2_normal_left5_3_step_1",
      "has_batch_norm" : 0,
      "type" : "convolution",
      "n_groups" : 44,
      "pad_t" : 0,
      "has_biases" : 0,
      "C" : 44,
      "bottom" : "activation_69_output",
      "weights" : {

      },
      "pad_mode" : 1,
      "Nx" : 3,
      "pad_value" : 0,
      "Ny" : 3,
      "n_parallel" : 1
    },
    {
      "pad_r" : 0,
      "fused_relu" : 0,
      "fused_tanh" : 0,
      "pad_fill_mode" : 0,
      "pad_b" : 0,
      "pad_l" : 0,
      "top" : "separable_conv_2_bn_normal_left5_3_output",
      "blob_weights" : 411,
      "K" : 44,
      "blob_biases" : 409,
      "name" : "separable_conv_2_normal_left5_3_step_2",
      "has_batch_norm" : 0,
      "type" : "convolution",
      "n_groups" : 1,
      "pad_t" : 0,
      "has_biases" : 1,
      "C" : 44,
      "bottom" : "separable_conv_2_normal_left5_3_output_intermin_",
      "weights" : {

      },
      "pad_mode" : 1,
      "Nx" : 1,
      "pad_value" : 0,
      "Ny" : 1,
      "n_parallel" : 1
    },
    {
      "pad_value" : 0,
      "average_count_exclude_padding" : 1,
      "top_shape_style" : 0,
      "avg_or_max" : 0,
      "stride_x" : 1,
      "pad_mode" : 1,
      "stride_y" : 1,
      "pad_t" : 0,
      "weights" : {

      },
      "size_y" : 3,
      "type" : "pool",
      "pad_r" : 0,
      "pad_b" : 0,
      "size_x" : 3,
      "pad_fill_mode" : 0,
      "bottom" : "normal_bn_1_3_output",
      "pad_l" : 0,
      "name" : "normal_left3_3",
      "top" : "normal_left3_3_output"
    },
    {
      "pad_value" : 0,
      "average_count_exclude_padding" : 1,
      "top_shape_style" : 0,
      "avg_or_max" : 0,
      "stride_x" : 1,
      "pad_mode" : 1,
      "stride_y" : 1,
      "pad_t" : 0,
      "weights" : {

      },
      "size_y" : 3,
      "type" : "pool",
      "pad_r" : 0,
      "pad_b" : 0,
      "size_x" : 3,
      "pad_fill_mode" : 0,
      "bottom" : "adjust_bn_3_output",
      "pad_l" : 0,
      "name" : "normal_left4_3",
      "top" : "normal_left4_3_output"
    },
    {
      "pad_value" : 0,
      "average_count_exclude_padding" : 1,
      "top_shape_style" : 0,
      "avg_or_max" : 0,
      "stride_x" : 1,
      "pad_mode" : 1,
      "stride_y" : 1,
      "pad_t" : 0,
      "weights" : {

      },
      "size_y" : 3,
      "type" : "pool",
      "pad_r" : 0,
      "pad_b" : 0,
      "size_x" : 3,
      "pad_fill_mode" : 0,
      "bottom" : "adjust_bn_3_output",
      "pad_l" : 0,
      "name" : "normal_right4_3",
      "top" : "normal_right4_3_output"
    },
    {
      "alpha" : 1,
      "bottom" : "separable_conv_2_bn_normal_left1_3_output,separable_conv_2_bn_normal_right1_3_output",
      "operation" : 0,
      "weights" : {

      },
      "fused_relu" : 0,
      "top" : "normal_add_1_3_output",
      "type" : "elementwise",
      "name" : "normal_add_1_3",
      "beta" : 0
    },
    {
      "alpha" : 1,
      "bottom" : "separable_conv_2_bn_normal_left2_3_output,separable_conv_2_bn_normal_right2_3_output",
      "operation" : 0,
      "weights" : {

      },
      "fused_relu" : 0,
      "top" : "normal_add_2_3_output",
      "type" : "elementwise",
      "name" : "normal_add_2_3",
      "beta" : 0
    },
    {
      "alpha" : 1,
      "bottom" : "normal_left3_3_output,adjust_bn_3_output",
      "operation" : 0,
      "weights" : {

      },
      "fused_relu" : 0,
      "top" : "normal_add_3_3_output",
      "type" : "elementwise",
      "name" : "normal_add_3_3",
      "beta" : 0
    },
    {
      "alpha" : 1,
      "bottom" : "normal_left4_3_output,normal_right4_3_output",
      "operation" : 0,
      "weights" : {

      },
      "fused_relu" : 0,
      "top" : "normal_add_4_3_output",
      "type" : "elementwise",
      "name" : "normal_add_4_3",
      "beta" : 0
    },
    {
      "alpha" : 1,
      "bottom" : "separable_conv_2_bn_normal_left5_3_output,normal_bn_1_3_output",
      "operation" : 0,
      "weights" : {

      },
      "fused_relu" : 0,
      "top" : "normal_add_5_3_output",
      "type" : "elementwise",
      "name" : "normal_add_5_3",
      "beta" : 0
    },
    {
      "weights" : {

      },
      "top" : "normal_concat_3_output",
      "type" : "concat",
      "name" : "normal_concat_3",
      "bottom" : "adjust_bn_3_output,normal_add_1_3_output,normal_add_2_3_output,normal_add_3_3_output,normal_add_4_3_output,normal_add_5_3_output"
    },
    {
      "mode" : 0,
      "weights" : {

      },
      "top" : "activation_71_output",
      "type" : "activation",
      "name" : "activation_71",
      "bottom" : "normal_concat_3_output"
    },
    {
      "mode" : 0,
      "weights" : {

      },
      "top" : "activation_70_output",
      "type" : "activation",
      "name" : "activation_70",
      "bottom" : "normal_concat_2_output"
    },
    {
      "pad_r" : 0,
      "fused_relu" : 0,
      "fused_tanh" : 0,
      "pad_fill_mode" : 0,
      "pad_b" : 0,
      "pad_l" : 0,
      "top" : "reduction_bn_1_reduce_4_output",
      "blob_weights" : 415,
      "K" : 264,
      "blob_biases" : 413,
      "name" : "reduction_conv_1_reduce_4",
      "has_batch_norm" : 0,
      "type" : "convolution",
      "n_groups" : 1,
      "pad_t" : 0,
      "has_biases" : 1,
      "C" : 88,
      "bottom" : "activation_71_output",
      "weights" : {

      },
      "pad_mode" : 1,
      "Nx" : 1,
      "pad_value" : 0,
      "Ny" : 1,
      "n_parallel" : 1
    },
    {
      "pad_r" : 0,
      "fused_relu" : 0,
      "fused_tanh" : 0,
      "pad_fill_mode" : 0,
      "pad_b" : 0,
      "pad_l" : 0,
      "top" : "adjust_bn_reduce_4_output",
      "blob_weights" : 419,
      "K" : 264,
      "blob_biases" : 417,
      "name" : "adjust_conv_projection_reduce_4",
      "has_batch_norm" : 0,
      "type" : "convolution",
      "n_groups" : 1,
      "pad_t" : 0,
      "has_biases" : 1,
      "C" : 88,
      "bottom" : "activation_70_output",
      "weights" : {

      },
      "pad_mode" : 1,
      "Nx" : 1,
      "pad_value" : 0,
      "Ny" : 1,
      "n_parallel" : 1
    },
    {
      "mode" : 0,
      "weights" : {

      },
      "top" : "activation_72_output",
      "type" : "activation",
      "name" : "activation_72",
      "bottom" : "reduction_bn_1_reduce_4_output"
    },
    {
      "mode" : 0,
      "weights" : {

      },
      "top" : "activation_74_output",
      "type" : "activation",
      "name" : "activation_74",
      "bottom" : "adjust_bn_reduce_4_output"
    },
    {
      "pad_r" : 0,
      "fused_relu" : 0,
      "fused_tanh" : 0,
      "pad_fill_mode" : 0,
      "pad_b" : 0,
      "pad_l" : 0,
      "top" : "separable_conv_1_reduction_left1_reduce_4_output_intermin_",
      "blob_weights" : 421,
      "K" : 88,
      "stride_x" : 2,
      "name" : "separable_conv_1_reduction_left1_reduce_4_step_1",
      "has_batch_norm" : 0,
      "type" : "convolution",
      "n_groups" : 88,
      "pad_t" : 0,
      "stride_y" : 2,
      "has_biases" : 0,
      "C" : 88,
      "bottom" : "activation_72_output",
      "weights" : {

      },
      "Nx" : 5,
      "pad_mode" : 1,
      "pad_value" : 0,
      "Ny" : 5,
      "n_parallel" : 1
    },
    {
      "pad_r" : 0,
      "fused_relu" : 1,
      "fused_tanh" : 0,
      "pad_fill_mode" : 0,
      "pad_b" : 0,
      "pad_l" : 0,
      "top" : "activation_73_output",
      "blob_weights" : 425,
      "K" : 88,
      "blob_biases" : 423,
      "name" : "separable_conv_1_reduction_left1_reduce_4_step_2",
      "has_batch_norm" : 0,
      "type" : "convolution",
      "n_groups" : 1,
      "pad_t" : 0,
      "has_biases" : 1,
      "C" : 88,
      "bottom" : "separable_conv_1_reduction_left1_reduce_4_output_intermin_",
      "weights" : {

      },
      "pad_mode" : 1,
      "Nx" : 1,
      "pad_value" : 0,
      "Ny" : 1,
      "n_parallel" : 1
    },
    {
      "pad_r" : 0,
      "fused_relu" : 0,
      "fused_tanh" : 0,
      "pad_fill_mode" : 0,
      "pad_b" : 0,
      "pad_l" : 0,
      "top" : "separable_conv_1_reduction_1_reduce_4_output_intermin_",
      "blob_weights" : 427,
      "K" : 88,
      "stride_x" : 2,
      "name" : "separable_conv_1_reduction_1_reduce_4_step_1",
      "has_batch_norm" : 0,
      "type" : "convolution",
      "n_groups" : 88,
      "pad_t" : 0,
      "stride_y" : 2,
      "has_biases" : 0,
      "C" : 88,
      "bottom" : "activation_74_output",
      "weights" : {

      },
      "Nx" : 7,
      "pad_mode" : 1,
      "pad_value" : 0,
      "Ny" : 7,
      "n_parallel" : 1
    },
    {
      "pad_r" : 0,
      "fused_relu" : 1,
      "fused_tanh" : 0,
      "pad_fill_mode" : 0,
      "pad_b" : 0,
      "pad_l" : 0,
      "top" : "activation_75_output",
      "blob_weights" : 431,
      "K" : 88,
      "blob_biases" : 429,
      "name" : "separable_conv_1_reduction_1_reduce_4_step_2",
      "has_batch_norm" : 0,
      "type" : "convolution",
      "n_groups" : 1,
      "pad_t" : 0,
      "has_biases" : 1,
      "C" : 88,
      "bottom" : "separable_conv_1_reduction_1_reduce_4_output_intermin_",
      "weights" : {

      },
      "pad_mode" : 1,
      "Nx" : 1,
      "pad_value" : 0,
      "Ny" : 1,
      "n_parallel" : 1
    },
    {
      "pad_r" : 0,
      "fused_relu" : 0,
      "fused_tanh" : 0,
      "pad_fill_mode" : 0,
      "pad_b" : 0,
      "pad_l" : 0,
      "top" : "separable_conv_2_reduction_left1_reduce_4_output_intermin_",
      "blob_weights" : 433,
      "K" : 88,
      "name" : "separable_conv_2_reduction_left1_reduce_4_step_1",
      "has_batch_norm" : 0,
      "type" : "convolution",
      "n_groups" : 88,
      "pad_t" : 0,
      "has_biases" : 0,
      "C" : 88,
      "bottom" : "activation_73_output",
      "weights" : {

      },
      "pad_mode" : 1,
      "Nx" : 5,
      "pad_value" : 0,
      "Ny" : 5,
      "n_parallel" : 1
    },
    {
      "pad_r" : 0,
      "fused_relu" : 0,
      "fused_tanh" : 0,
      "pad_fill_mode" : 0,
      "pad_b" : 0,
      "pad_l" : 0,
      "top" : "separable_conv_2_bn_reduction_left1_reduce_4_output",
      "blob_weights" : 437,
      "K" : 88,
      "blob_biases" : 435,
      "name" : "separable_conv_2_reduction_left1_reduce_4_step_2",
      "has_batch_norm" : 0,
      "type" : "convolution",
      "n_groups" : 1,
      "pad_t" : 0,
      "has_biases" : 1,
      "C" : 88,
      "bottom" : "separable_conv_2_reduction_left1_reduce_4_output_intermin_",
      "weights" : {

      },
      "pad_mode" : 1,
      "Nx" : 1,
      "pad_value" : 0,
      "Ny" : 1,
      "n_parallel" : 1
    },
    {
      "pad_r" : 0,
      "fused_relu" : 0,
      "fused_tanh" : 0,
      "pad_fill_mode" : 0,
      "pad_b" : 0,
      "pad_l" : 0,
      "top" : "separable_conv_2_reduction_1_reduce_4_output_intermin_",
      "blob_weights" : 439,
      "K" : 88,
      "name" : "separable_conv_2_reduction_1_reduce_4_step_1",
      "has_batch_norm" : 0,
      "type" : "convolution",
      "n_groups" : 88,
      "pad_t" : 0,
      "has_biases" : 0,
      "C" : 88,
      "bottom" : "activation_75_output",
      "weights" : {

      },
      "pad_mode" : 1,
      "Nx" : 7,
      "pad_value" : 0,
      "Ny" : 7,
      "n_parallel" : 1
    },
    {
      "pad_r" : 0,
      "fused_relu" : 0,
      "fused_tanh" : 0,
      "pad_fill_mode" : 0,
      "pad_b" : 0,
      "pad_l" : 0,
      "top" : "separable_conv_2_bn_reduction_1_reduce_4_output",
      "blob_weights" : 443,
      "K" : 88,
      "blob_biases" : 441,
      "name" : "separable_conv_2_reduction_1_reduce_4_step_2",
      "has_batch_norm" : 0,
      "type" : "convolution",
      "n_groups" : 1,
      "pad_t" : 0,
      "has_biases" : 1,
      "C" : 88,
      "bottom" : "separable_conv_2_reduction_1_reduce_4_output_intermin_",
      "weights" : {

      },
      "pad_mode" : 1,
      "Nx" : 1,
      "pad_value" : 0,
      "Ny" : 1,
      "n_parallel" : 1
    },
    {
      "mode" : 0,
      "weights" : {

      },
      "top" : "activation_76_output",
      "type" : "activation",
      "name" : "activation_76",
      "bottom" : "adjust_bn_reduce_4_output"
    },
    {
      "alpha" : 1,
      "bottom" : "separable_conv_2_bn_reduction_left1_reduce_4_output,separable_conv_2_bn_reduction_1_reduce_4_output",
      "operation" : 0,
      "weights" : {

      },
      "fused_relu" : 0,
      "top" : "reduction_add_1_reduce_4_output",
      "type" : "elementwise",
      "name" : "reduction_add_1_reduce_4",
      "beta" : 0
    },
    {
      "pad_r" : 0,
      "fused_relu" : 0,
      "fused_tanh" : 0,
      "pad_fill_mode" : 0,
      "pad_b" : 0,
      "pad_l" : 0,
      "top" : "separable_conv_1_reduction_right2_reduce_4_output_intermin_",
      "blob_weights" : 445,
      "K" : 88,
      "stride_x" : 2,
      "name" : "separable_conv_1_reduction_right2_reduce_4_step_1",
      "has_batch_norm" : 0,
      "type" : "convolution",
      "n_groups" : 88,
      "pad_t" : 0,
      "stride_y" : 2,
      "has_biases" : 0,
      "C" : 88,
      "bottom" : "activation_76_output",
      "weights" : {

      },
      "Nx" : 7,
      "pad_mode" : 1,
      "pad_value" : 0,
      "Ny" : 7,
      "n_parallel" : 1
    },
    {
      "pad_r" : 0,
      "fused_relu" : 1,
      "fused_tanh" : 0,
      "pad_fill_mode" : 0,
      "pad_b" : 0,
      "pad_l" : 0,
      "top" : "activation_77_output",
      "blob_weights" : 449,
      "K" : 88,
      "blob_biases" : 447,
      "name" : "separable_conv_1_reduction_right2_reduce_4_step_2",
      "has_batch_norm" : 0,
      "type" : "convolution",
      "n_groups" : 1,
      "pad_t" : 0,
      "has_biases" : 1,
      "C" : 88,
      "bottom" : "separable_conv_1_reduction_right2_reduce_4_output_intermin_",
      "weights" : {

      },
      "pad_mode" : 1,
      "Nx" : 1,
      "pad_value" : 0,
      "Ny" : 1,
      "n_parallel" : 1
    },
    {
      "mode" : 0,
      "weights" : {

      },
      "top" : "activation_78_output",
      "type" : "activation",
      "name" : "activation_78",
      "bottom" : "adjust_bn_reduce_4_output"
    },
    {
      "mode" : 0,
      "weights" : {

      },
      "top" : "activation_80_output",
      "type" : "activation",
      "name" : "activation_80",
      "bottom" : "reduction_add_1_reduce_4_output"
    },
    {
      "pad_r" : 0,
      "fused_relu" : 0,
      "fused_tanh" : 0,
      "pad_fill_mode" : 0,
      "pad_b" : 0,
      "pad_l" : 0,
      "top" : "separable_conv_1_reduction_right3_reduce_4_output_intermin_",
      "blob_weights" : 451,
      "K" : 88,
      "stride_x" : 2,
      "name" : "separable_conv_1_reduction_right3_reduce_4_step_1",
      "has_batch_norm" : 0,
      "type" : "convolution",
      "n_groups" : 88,
      "pad_t" : 0,
      "stride_y" : 2,
      "has_biases" : 0,
      "C" : 88,
      "bottom" : "activation_78_output",
      "weights" : {

      },
      "Nx" : 5,
      "pad_mode" : 1,
      "pad_value" : 0,
      "Ny" : 5,
      "n_parallel" : 1
    },
    {
      "pad_r" : 0,
      "fused_relu" : 1,
      "fused_tanh" : 0,
      "pad_fill_mode" : 0,
      "pad_b" : 0,
      "pad_l" : 0,
      "top" : "activation_79_output",
      "blob_weights" : 455,
      "K" : 88,
      "blob_biases" : 453,
      "name" : "separable_conv_1_reduction_right3_reduce_4_step_2",
      "has_batch_norm" : 0,
      "type" : "convolution",
      "n_groups" : 1,
      "pad_t" : 0,
      "has_biases" : 1,
      "C" : 88,
      "bottom" : "separable_conv_1_reduction_right3_reduce_4_output_intermin_",
      "weights" : {

      },
      "pad_mode" : 1,
      "Nx" : 1,
      "pad_value" : 0,
      "Ny" : 1,
      "n_parallel" : 1
    },
    {
      "pad_r" : 0,
      "fused_relu" : 0,
      "fused_tanh" : 0,
      "pad_fill_mode" : 0,
      "pad_b" : 0,
      "pad_l" : 0,
      "top" : "separable_conv_1_reduction_left4_reduce_4_output_intermin_",
      "blob_weights" : 457,
      "K" : 88,
      "name" : "separable_conv_1_reduction_left4_reduce_4_step_1",
      "has_batch_norm" : 0,
      "type" : "convolution",
      "n_groups" : 88,
      "pad_t" : 0,
      "has_biases" : 0,
      "C" : 88,
      "bottom" : "activation_80_output",
      "weights" : {

      },
      "pad_mode" : 1,
      "Nx" : 3,
      "pad_value" : 0,
      "Ny" : 3,
      "n_parallel" : 1
    },
    {
      "pad_r" : 0,
      "fused_relu" : 1,
      "fused_tanh" : 0,
      "pad_fill_mode" : 0,
      "pad_b" : 0,
      "pad_l" : 0,
      "top" : "activation_81_output",
      "blob_weights" : 461,
      "K" : 88,
      "blob_biases" : 459,
      "name" : "separable_conv_1_reduction_left4_reduce_4_step_2",
      "has_batch_norm" : 0,
      "type" : "convolution",
      "n_groups" : 1,
      "pad_t" : 0,
      "has_biases" : 1,
      "C" : 88,
      "bottom" : "separable_conv_1_reduction_left4_reduce_4_output_intermin_",
      "weights" : {

      },
      "pad_mode" : 1,
      "Nx" : 1,
      "pad_value" : 0,
      "Ny" : 1,
      "n_parallel" : 1
    },
    {
      "pad_r" : 0,
      "fused_relu" : 0,
      "fused_tanh" : 0,
      "pad_fill_mode" : 0,
      "pad_b" : 0,
      "pad_l" : 0,
      "top" : "separable_conv_2_reduction_right2_reduce_4_output_intermin_",
      "blob_weights" : 463,
      "K" : 88,
      "name" : "separable_conv_2_reduction_right2_reduce_4_step_1",
      "has_batch_norm" : 0,
      "type" : "convolution",
      "n_groups" : 88,
      "pad_t" : 0,
      "has_biases" : 0,
      "C" : 88,
      "bottom" : "activation_77_output",
      "weights" : {

      },
      "pad_mode" : 1,
      "Nx" : 7,
      "pad_value" : 0,
      "Ny" : 7,
      "n_parallel" : 1
    },
    {
      "pad_r" : 0,
      "fused_relu" : 0,
      "fused_tanh" : 0,
      "pad_fill_mode" : 0,
      "pad_b" : 0,
      "pad_l" : 0,
      "top" : "separable_conv_2_bn_reduction_right2_reduce_4_output",
      "blob_weights" : 467,
      "K" : 88,
      "blob_biases" : 465,
      "name" : "separable_conv_2_reduction_right2_reduce_4_step_2",
      "has_batch_norm" : 0,
      "type" : "convolution",
      "n_groups" : 1,
      "pad_t" : 0,
      "has_biases" : 1,
      "C" : 88,
      "bottom" : "separable_conv_2_reduction_right2_reduce_4_output_intermin_",
      "weights" : {

      },
      "pad_mode" : 1,
      "Nx" : 1,
      "pad_value" : 0,
      "Ny" : 1,
      "n_parallel" : 1
    },
    {
      "pad_value" : 0,
      "average_count_exclude_padding" : 1,
      "top_shape_style" : 0,
      "avg_or_max" : 1,
      "stride_x" : 2,
      "pad_mode" : 1,
      "stride_y" : 2,
      "pad_t" : 0,
      "weights" : {

      },
      "size_y" : 3,
      "type" : "pool",
      "pad_r" : 0,
      "pad_b" : 0,
      "size_x" : 3,
      "pad_fill_mode" : 0,
      "bottom" : "reduction_bn_1_reduce_4_output",
      "pad_l" : 0,
      "name" : "reduction_left2_reduce_4",
      "top" : "reduction_left2_reduce_4_output"
    },
    {
      "pad_r" : 0,
      "fused_relu" : 0,
      "fused_tanh" : 0,
      "pad_fill_mode" : 0,
      "pad_b" : 0,
      "pad_l" : 0,
      "top" : "separable_conv_2_reduction_right3_reduce_4_output_intermin_",
      "blob_weights" : 469,
      "K" : 88,
      "name" : "separable_conv_2_reduction_right3_reduce_4_step_1",
      "has_batch_norm" : 0,
      "type" : "convolution",
      "n_groups" : 88,
      "pad_t" : 0,
      "has_biases" : 0,
      "C" : 88,
      "bottom" : "activation_79_output",
      "weights" : {

      },
      "pad_mode" : 1,
      "Nx" : 5,
      "pad_value" : 0,
      "Ny" : 5,
      "n_parallel" : 1
    },
    {
      "pad_r" : 0,
      "fused_relu" : 0,
      "fused_tanh" : 0,
      "pad_fill_mode" : 0,
      "pad_b" : 0,
      "pad_l" : 0,
      "top" : "separable_conv_2_bn_reduction_right3_reduce_4_output",
      "blob_weights" : 473,
      "K" : 88,
      "blob_biases" : 471,
      "name" : "separable_conv_2_reduction_right3_reduce_4_step_2",
      "has_batch_norm" : 0,
      "type" : "convolution",
      "n_groups" : 1,
      "pad_t" : 0,
      "has_biases" : 1,
      "C" : 88,
      "bottom" : "separable_conv_2_reduction_right3_reduce_4_output_intermin_",
      "weights" : {

      },
      "pad_mode" : 1,
      "Nx" : 1,
      "pad_value" : 0,
      "Ny" : 1,
      "n_parallel" : 1
    },
    {
      "pad_r" : 0,
      "fused_relu" : 0,
      "fused_tanh" : 0,
      "pad_fill_mode" : 0,
      "pad_b" : 0,
      "pad_l" : 0,
      "top" : "separable_conv_2_reduction_left4_reduce_4_output_intermin_",
      "blob_weights" : 475,
      "K" : 88,
      "name" : "separable_conv_2_reduction_left4_reduce_4_step_1",
      "has_batch_norm" : 0,
      "type" : "convolution",
      "n_groups" : 88,
      "pad_t" : 0,
      "has_biases" : 0,
      "C" : 88,
      "bottom" : "activation_81_output",
      "weights" : {

      },
      "pad_mode" : 1,
      "Nx" : 3,
      "pad_value" : 0,
      "Ny" : 3,
      "n_parallel" : 1
    },
    {
      "pad_r" : 0,
      "fused_relu" : 0,
      "fused_tanh" : 0,
      "pad_fill_mode" : 0,
      "pad_b" : 0,
      "pad_l" : 0,
      "top" : "separable_conv_2_bn_reduction_left4_reduce_4_output",
      "blob_weights" : 479,
      "K" : 88,
      "blob_biases" : 477,
      "name" : "separable_conv_2_reduction_left4_reduce_4_step_2",
      "has_batch_norm" : 0,
      "type" : "convolution",
      "n_groups" : 1,
      "pad_t" : 0,
      "has_biases" : 1,
      "C" : 88,
      "bottom" : "separable_conv_2_reduction_left4_reduce_4_output_intermin_",
      "weights" : {

      },
      "pad_mode" : 1,
      "Nx" : 1,
      "pad_value" : 0,
      "Ny" : 1,
      "n_parallel" : 1
    },
    {
      "mode" : 0,
      "weights" : {

      },
      "top" : "adjust_relu_1_5_output",
      "type" : "activation",
      "name" : "adjust_relu_1_5",
      "bottom" : "normal_concat_3_output"
    },
    {
      "alpha" : 1,
      "bottom" : "reduction_left2_reduce_4_output,separable_conv_2_bn_reduction_right2_reduce_4_output",
      "operation" : 0,
      "weights" : {

      },
      "fused_relu" : 0,
      "top" : "reduction_add_2_reduce_4_output",
      "type" : "elementwise",
      "name" : "reduction_add_2_reduce_4",
      "beta" : 0
    },
    {
      "pad_value" : 0,
      "average_count_exclude_padding" : 1,
      "top_shape_style" : 0,
      "avg_or_max" : 0,
      "stride_x" : 2,
      "pad_mode" : 1,
      "stride_y" : 2,
      "pad_t" : 0,
      "weights" : {

      },
      "size_y" : 3,
      "type" : "pool",
      "pad_r" : 0,
      "pad_b" : 0,
      "size_x" : 3,
      "pad_fill_mode" : 0,
      "bottom" : "reduction_bn_1_reduce_4_output",
      "pad_l" : 0,
      "name" : "reduction_left3_reduce_4",
      "top" : "reduction_left3_reduce_4_output"
    },
    {
      "pad_value" : 0,
      "average_count_exclude_padding" : 1,
      "top_shape_style" : 0,
      "avg_or_max" : 0,
      "stride_x" : 1,
      "pad_mode" : 1,
      "stride_y" : 1,
      "pad_t" : 0,
      "weights" : {

      },
      "size_y" : 3,
      "type" : "pool",
      "pad_r" : 0,
      "pad_b" : 0,
      "size_x" : 3,
      "pad_fill_mode" : 0,
      "bottom" : "reduction_add_1_reduce_4_output",
      "pad_l" : 0,
      "name" : "reduction_left4_reduce_4",
      "top" : "reduction_left4_reduce_4_output"
    },
    {
      "pad_value" : 0,
      "average_count_exclude_padding" : 1,
      "top_shape_style" : 0,
      "avg_or_max" : 1,
      "stride_x" : 2,
      "pad_mode" : 1,
      "stride_y" : 2,
      "pad_t" : 0,
      "weights" : {

      },
      "size_y" : 3,
      "type" : "pool",
      "pad_r" : 0,
      "pad_b" : 0,
      "size_x" : 3,
      "pad_fill_mode" : 0,
      "bottom" : "reduction_bn_1_reduce_4_output",
      "pad_l" : 0,
      "name" : "reduction_right5_reduce_4",
      "top" : "reduction_right5_reduce_4_output"
    },
    {
      "pad_value" : 0,
      "top" : "zero_padding2d_3_output",
      "pad_pad_mode" : 0,
      "pad_t" : 0,
      "pad_r" : 1,
      "pad_b" : 1,
      "type" : "general_padding",
      "pad_fill_mode" : 0,
      "bottom" : "adjust_relu_1_5_output",
      "pad_l" : 0,
      "name" : "zero_padding2d_3",
      "weights" : {

      }
    },
    {
      "alpha" : 1,
      "bottom" : "reduction_left3_reduce_4_output,separable_conv_2_bn_reduction_right3_reduce_4_output",
      "operation" : 0,
      "weights" : {

      },
      "fused_relu" : 0,
      "top" : "reduction_add3_reduce_4_output",
      "type" : "elementwise",
      "name" : "reduction_add3_reduce_4",
      "beta" : 0
    },
    {
      "alpha" : 1,
      "bottom" : "reduction_add_2_reduce_4_output,reduction_left4_reduce_4_output",
      "operation" : 0,
      "weights" : {

      },
      "fused_relu" : 0,
      "top" : "add_3_output",
      "type" : "elementwise",
      "name" : "add_3",
      "beta" : 0
    },
    {
      "alpha" : 1,
      "bottom" : "separable_conv_2_bn_reduction_left4_reduce_4_output,reduction_right5_reduce_4_output",
      "operation" : 0,
      "weights" : {

      },
      "fused_relu" : 0,
      "top" : "reduction_add4_reduce_4_output",
      "type" : "elementwise",
      "name" : "reduction_add4_reduce_4",
      "beta" : 0
    },
    {
      "bottom" : "zero_padding2d_3_output",
      "t" : 1,
      "weights" : {

      },
      "l" : 1,
      "r" : 0,
      "top" : "cropping2d_3_output",
      "type" : "crop",
      "name" : "cropping2d_3",
      "b" : 0
    },
    {
      "weights" : {

      },
      "top" : "reduction_concat_reduce_4_output",
      "type" : "concat",
      "name" : "reduction_concat_reduce_4",
      "bottom" : "reduction_add_2_reduce_4_output,reduction_add3_reduce_4_output,add_3_output,reduction_add4_reduce_4_output"
    },
    {
      "pad_value" : 0,
      "average_count_exclude_padding" : 1,
      "top_shape_style" : 0,
      "avg_or_max" : 0,
      "stride_x" : 2,
      "pad_mode" : 2,
      "stride_y" : 2,
      "pad_t" : 0,
      "weights" : {

      },
      "size_y" : 1,
      "type" : "pool",
      "pad_r" : 0,
      "pad_b" : 0,
      "size_x" : 1,
      "pad_fill_mode" : 0,
      "bottom" : "adjust_relu_1_5_output",
      "pad_l" : 0,
      "name" : "adjust_avg_pool_1_5",
      "top" : "adjust_avg_pool_1_5_output"
    },
    {
      "pad_value" : 0,
      "average_count_exclude_padding" : 1,
      "top_shape_style" : 0,
      "avg_or_max" : 0,
      "stride_x" : 2,
      "pad_mode" : 2,
      "stride_y" : 2,
      "pad_t" : 0,
      "weights" : {

      },
      "size_y" : 1,
      "type" : "pool",
      "pad_r" : 0,
      "pad_b" : 0,
      "size_x" : 1,
      "pad_fill_mode" : 0,
      "bottom" : "cropping2d_3_output",
      "pad_l" : 0,
      "name" : "adjust_avg_pool_2_5",
      "top" : "adjust_avg_pool_2_5_output"
    },
    {
      "pad_r" : 0,
      "fused_relu" : 0,
      "fused_tanh" : 0,
      "pad_fill_mode" : 0,
      "pad_b" : 0,
      "pad_l" : 0,
      "top" : "adjust_conv_1_5_output",
      "blob_weights" : 481,
      "K" : 264,
      "name" : "adjust_conv_1_5",
      "has_batch_norm" : 0,
      "type" : "convolution",
      "n_groups" : 1,
      "pad_t" : 0,
      "has_biases" : 0,
      "C" : 44,
      "bottom" : "adjust_avg_pool_1_5_output",
      "weights" : {

      },
      "pad_mode" : 1,
      "Nx" : 1,
      "pad_value" : 0,
      "Ny" : 1,
      "n_parallel" : 1
    },
    {
      "pad_r" : 0,
      "fused_relu" : 0,
      "fused_tanh" : 0,
      "pad_fill_mode" : 0,
      "pad_b" : 0,
      "pad_l" : 0,
      "top" : "adjust_conv_2_5_output",
      "blob_weights" : 483,
      "K" : 264,
      "name" : "adjust_conv_2_5",
      "has_batch_norm" : 0,
      "type" : "convolution",
      "n_groups" : 1,
      "pad_t" : 0,
      "has_biases" : 0,
      "C" : 44,
      "bottom" : "adjust_avg_pool_2_5_output",
      "weights" : {

      },
      "pad_mode" : 1,
      "Nx" : 1,
      "pad_value" : 0,
      "Ny" : 1,
      "n_parallel" : 1
    },
    {
      "mode" : 0,
      "weights" : {

      },
      "top" : "activation_82_output",
      "type" : "activation",
      "name" : "activation_82",
      "bottom" : "reduction_concat_reduce_4_output"
    },
    {
      "weights" : {

      },
      "top" : "concatenate_3_output",
      "type" : "concat",
      "name" : "concatenate_3",
      "bottom" : "adjust_conv_1_5_output,adjust_conv_2_5_output"
    },
    {
      "pad_r" : 0,
      "fused_relu" : 0,
      "fused_tanh" : 0,
      "pad_fill_mode" : 0,
      "pad_b" : 0,
      "pad_l" : 0,
      "top" : "normal_bn_1_5_output",
      "blob_weights" : 487,
      "K" : 352,
      "blob_biases" : 485,
      "name" : "normal_conv_1_5",
      "has_batch_norm" : 0,
      "type" : "convolution",
      "n_groups" : 1,
      "pad_t" : 0,
      "has_biases" : 1,
      "C" : 88,
      "bottom" : "activation_82_output",
      "weights" : {

      },
      "pad_mode" : 1,
      "Nx" : 1,
      "pad_value" : 0,
      "Ny" : 1,
      "n_parallel" : 1
    },
    {
      "name" : "adjust_bn_5",
      "bottom" : "concatenate_3_output",
      "weights" : {

      },
      "top" : "adjust_bn_5_output",
      "C" : 88,
      "blob_batchnorm_params" : 489,
      "type" : "batchnorm"
    },
    {
      "mode" : 0,
      "weights" : {

      },
      "top" : "activation_83_output",
      "type" : "activation",
      "name" : "activation_83",
      "bottom" : "normal_bn_1_5_output"
    },
    {
      "mode" : 0,
      "weights" : {

      },
      "top" : "activation_85_output",
      "type" : "activation",
      "name" : "activation_85",
      "bottom" : "adjust_bn_5_output"
    },
    {
      "mode" : 0,
      "weights" : {

      },
      "top" : "activation_87_output",
      "type" : "activation",
      "name" : "activation_87",
      "bottom" : "adjust_bn_5_output"
    },
    {
      "mode" : 0,
      "weights" : {

      },
      "top" : "activation_89_output",
      "type" : "activation",
      "name" : "activation_89",
      "bottom" : "adjust_bn_5_output"
    },
    {
      "mode" : 0,
      "weights" : {

      },
      "top" : "activation_91_output",
      "type" : "activation",
      "name" : "activation_91",
      "bottom" : "normal_bn_1_5_output"
    },
    {
      "pad_r" : 0,
      "fused_relu" : 0,
      "fused_tanh" : 0,
      "pad_fill_mode" : 0,
      "pad_b" : 0,
      "pad_l" : 0,
      "top" : "separable_conv_1_normal_left1_5_output_intermin_",
      "blob_weights" : 491,
      "K" : 88,
      "name" : "separable_conv_1_normal_left1_5_step_1",
      "has_batch_norm" : 0,
      "type" : "convolution",
      "n_groups" : 88,
      "pad_t" : 0,
      "has_biases" : 0,
      "C" : 88,
      "bottom" : "activation_83_output",
      "weights" : {

      },
      "pad_mode" : 1,
      "Nx" : 5,
      "pad_value" : 0,
      "Ny" : 5,
      "n_parallel" : 1
    },
    {
      "pad_r" : 0,
      "fused_relu" : 1,
      "fused_tanh" : 0,
      "pad_fill_mode" : 0,
      "pad_b" : 0,
      "pad_l" : 0,
      "top" : "activation_84_output",
      "blob_weights" : 495,
      "K" : 88,
      "blob_biases" : 493,
      "name" : "separable_conv_1_normal_left1_5_step_2",
      "has_batch_norm" : 0,
      "type" : "convolution",
      "n_groups" : 1,
      "pad_t" : 0,
      "has_biases" : 1,
      "C" : 88,
      "bottom" : "separable_conv_1_normal_left1_5_output_intermin_",
      "weights" : {

      },
      "pad_mode" : 1,
      "Nx" : 1,
      "pad_value" : 0,
      "Ny" : 1,
      "n_parallel" : 1
    },
    {
      "pad_r" : 0,
      "fused_relu" : 0,
      "fused_tanh" : 0,
      "pad_fill_mode" : 0,
      "pad_b" : 0,
      "pad_l" : 0,
      "top" : "separable_conv_1_normal_right1_5_output_intermin_",
      "blob_weights" : 497,
      "K" : 88,
      "name" : "separable_conv_1_normal_right1_5_step_1",
      "has_batch_norm" : 0,
      "type" : "convolution",
      "n_groups" : 88,
      "pad_t" : 0,
      "has_biases" : 0,
      "C" : 88,
      "bottom" : "activation_85_output",
      "weights" : {

      },
      "pad_mode" : 1,
      "Nx" : 3,
      "pad_value" : 0,
      "Ny" : 3,
      "n_parallel" : 1
    },
    {
      "pad_r" : 0,
      "fused_relu" : 1,
      "fused_tanh" : 0,
      "pad_fill_mode" : 0,
      "pad_b" : 0,
      "pad_l" : 0,
      "top" : "activation_86_output",
      "blob_weights" : 501,
      "K" : 88,
      "blob_biases" : 499,
      "name" : "separable_conv_1_normal_right1_5_step_2",
      "has_batch_norm" : 0,
      "type" : "convolution",
      "n_groups" : 1,
      "pad_t" : 0,
      "has_biases" : 1,
      "C" : 88,
      "bottom" : "separable_conv_1_normal_right1_5_output_intermin_",
      "weights" : {

      },
      "pad_mode" : 1,
      "Nx" : 1,
      "pad_value" : 0,
      "Ny" : 1,
      "n_parallel" : 1
    },
    {
      "pad_r" : 0,
      "fused_relu" : 0,
      "fused_tanh" : 0,
      "pad_fill_mode" : 0,
      "pad_b" : 0,
      "pad_l" : 0,
      "top" : "separable_conv_1_normal_left2_5_output_intermin_",
      "blob_weights" : 503,
      "K" : 88,
      "name" : "separable_conv_1_normal_left2_5_step_1",
      "has_batch_norm" : 0,
      "type" : "convolution",
      "n_groups" : 88,
      "pad_t" : 0,
      "has_biases" : 0,
      "C" : 88,
      "bottom" : "activation_87_output",
      "weights" : {

      },
      "pad_mode" : 1,
      "Nx" : 5,
      "pad_value" : 0,
      "Ny" : 5,
      "n_parallel" : 1
    },
    {
      "pad_r" : 0,
      "fused_relu" : 1,
      "fused_tanh" : 0,
      "pad_fill_mode" : 0,
      "pad_b" : 0,
      "pad_l" : 0,
      "top" : "activation_88_output",
      "blob_weights" : 507,
      "K" : 88,
      "blob_biases" : 505,
      "name" : "separable_conv_1_normal_left2_5_step_2",
      "has_batch_norm" : 0,
      "type" : "convolution",
      "n_groups" : 1,
      "pad_t" : 0,
      "has_biases" : 1,
      "C" : 88,
      "bottom" : "separable_conv_1_normal_left2_5_output_intermin_",
      "weights" : {

      },
      "pad_mode" : 1,
      "Nx" : 1,
      "pad_value" : 0,
…
      "Nx" : 3,
      "pad_value" : 0,
      "Ny" : 3,
      "n_parallel" : 1
    },
    {
      "pad_r" : 0,
      "fused_relu" : 1,
      "fused_tanh" : 0,
      "pad_fill_mode" : 0,
      "pad_b" : 0,
      "pad_l" : 0,
      "top" : "activation_163_output",
      "blob_weights" : 929,
      "K" : 176,
      "blob_biases" : 927,
      "name" : "separable_conv_1_normal_left5_10_step_2",
      "has_batch_norm" : 0,
      "type" : "convolution",
      "n_groups" : 1,
      "pad_t" : 0,
      "has_biases" : 1,
      "C" : 176,
      "bottom" : "separable_conv_1_normal_left5_10_output_intermin_",
      "weights" : {

      },
      "pad_mode" : 1,
      "Nx" : 1,
      "pad_value" : 0,
      "Ny" : 1,
      "n_parallel" : 1
    },
    {
      "pad_r" : 0,
      "fused_relu" : 0,
      "fused_tanh" : 0,
      "pad_fill_mode" : 0,
      "pad_b" : 0,
      "pad_l" : 0,
      "top" : "separable_conv_2_normal_left1_10_output_intermin_",
      "blob_weights" : 931,
      "K" : 176,
      "name" : "separable_conv_2_normal_left1_10_step_1",
      "has_batch_norm" : 0,
      "type" : "convolution",
      "n_groups" : 176,
      "pad_t" : 0,
      "has_biases" : 0,
      "C" : 176,
      "bottom" : "activation_155_output",
      "weights" : {

      },
      "pad_mode" : 1,
      "Nx" : 5,
      "pad_value" : 0,
      "Ny" : 5,
      "n_parallel" : 1
    },
    {
      "pad_r" : 0,
      "fused_relu" : 0,
      "fused_tanh" : 0,
      "pad_fill_mode" : 0,
      "pad_b" : 0,
      "pad_l" : 0,
      "top" : "separable_conv_2_bn_normal_left1_10_output",
      "blob_weights" : 935,
      "K" : 176,
      "blob_biases" : 933,
      "name" : "separable_conv_2_normal_left1_10_step_2",
      "has_batch_norm" : 0,
      "type" : "convolution",
      "n_groups" : 1,
      "pad_t" : 0,
      "has_biases" : 1,
      "C" : 176,
      "bottom" : "separable_conv_2_normal_left1_10_output_intermin_",
      "weights" : {

      },
      "pad_mode" : 1,
      "Nx" : 1,
      "pad_value" : 0,
      "Ny" : 1,
      "n_parallel" : 1
    },
    {
      "pad_r" : 0,
      "fused_relu" : 0,
      "fused_tanh" : 0,
      "pad_fill_mode" : 0,
      "pad_b" : 0,
      "pad_l" : 0,
      "top" : "separable_conv_2_normal_right1_10_output_intermin_",
      "blob_weights" : 937,
      "K" : 176,
      "name" : "separable_conv_2_normal_right1_10_step_1",
      "has_batch_norm" : 0,
      "type" : "convolution",
      "n_groups" : 176,
      "pad_t" : 0,
      "has_biases" : 0,
      "C" : 176,
      "bottom" : "activation_157_output",
      "weights" : {

      },
      "pad_mode" : 1,
      "Nx" : 3,
      "pad_value" : 0,
      "Ny" : 3,
      "n_parallel" : 1
    },
    {
      "pad_r" : 0,
      "fused_relu" : 0,
      "fused_tanh" : 0,
      "pad_fill_mode" : 0,
      "pad_b" : 0,
      "pad_l" : 0,
      "top" : "separable_conv_2_bn_normal_right1_10_output",
      "blob_weights" : 941,
      "K" : 176,
      "blob_biases" : 939,
      "name" : "separable_conv_2_normal_right1_10_step_2",
      "has_batch_norm" : 0,
      "type" : "convolution",
      "n_groups" : 1,
      "pad_t" : 0,
      "has_biases" : 1,
      "C" : 176,
      "bottom" : "separable_conv_2_normal_right1_10_output_intermin_",
      "weights" : {

      },
      "pad_mode" : 1,
      "Nx" : 1,
      "pad_value" : 0,
      "Ny" : 1,
      "n_parallel" : 1
    },
    {
      "pad_r" : 0,
      "fused_relu" : 0,
      "fused_tanh" : 0,
      "pad_fill_mode" : 0,
      "pad_b" : 0,
      "pad_l" : 0,
      "top" : "separable_conv_2_normal_left2_10_output_intermin_",
      "blob_weights" : 943,
      "K" : 176,
      "name" : "separable_conv_2_normal_left2_10_step_1",
      "has_batch_norm" : 0,
      "type" : "convolution",
      "n_groups" : 176,
      "pad_t" : 0,
      "has_biases" : 0,
      "C" : 176,
      "bottom" : "activation_159_output",
      "weights" : {

      },
      "pad_mode" : 1,
      "Nx" : 5,
      "pad_value" : 0,
      "Ny" : 5,
      "n_parallel" : 1
    },
    {
      "pad_r" : 0,
      "fused_relu" : 0,
      "fused_tanh" : 0,
      "pad_fill_mode" : 0,
      "pad_b" : 0,
      "pad_l" : 0,
      "top" : "separable_conv_2_bn_normal_left2_10_output",
      "blob_weights" : 947,
      "K" : 176,
      "blob_biases" : 945,
      "name" : "separable_conv_2_normal_left2_10_step_2",
      "has_batch_norm" : 0,
      "type" : "convolution",
      "n_groups" : 1,
      "pad_t" : 0,
      "has_biases" : 1,
      "C" : 176,
      "bottom" : "separable_conv_2_normal_left2_10_output_intermin_",
      "weights" : {

      },
      "pad_mode" : 1,
      "Nx" : 1,
      "pad_value" : 0,
      "Ny" : 1,
      "n_parallel" : 1
    },
    {
      "pad_r" : 0,
      "fused_relu" : 0,
      "fused_tanh" : 0,
      "pad_fill_mode" : 0,
      "pad_b" : 0,
      "pad_l" : 0,
      "top" : "separable_conv_2_normal_right2_10_output_intermin_",
      "blob_weights" : 949,
      "K" : 176,
      "name" : "separable_conv_2_normal_right2_10_step_1",
      "has_batch_norm" : 0,
      "type" : "convolution",
      "n_groups" : 176,
      "pad_t" : 0,
      "has_biases" : 0,
      "C" : 176,
      "bottom" : "activation_161_output",
      "weights" : {

      },
      "pad_mode" : 1,
      "Nx" : 3,
      "pad_value" : 0,
      "Ny" : 3,
      "n_parallel" : 1
    },
    {
      "pad_r" : 0,
      "fused_relu" : 0,
      "fused_tanh" : 0,
      "pad_fill_mode" : 0,
      "pad_b" : 0,
      "pad_l" : 0,
      "top" : "separable_conv_2_bn_normal_right2_10_output",
      "blob_weights" : 953,
      "K" : 176,
      "blob_biases" : 951,
      "name" : "separable_conv_2_normal_right2_10_step_2",
      "has_batch_norm" : 0,
      "type" : "convolution",
      "n_groups" : 1,
      "pad_t" : 0,
      "has_biases" : 1,
      "C" : 176,
      "bottom" : "separable_conv_2_normal_right2_10_output_intermin_",
      "weights" : {

      },
      "pad_mode" : 1,
      "Nx" : 1,
      "pad_value" : 0,
      "Ny" : 1,
      "n_parallel" : 1
    },
    {
      "pad_r" : 0,
      "fused_relu" : 0,
      "fused_tanh" : 0,
      "pad_fill_mode" : 0,
      "pad_b" : 0,
      "pad_l" : 0,
      "top" : "separable_conv_2_normal_left5_10_output_intermin_",
      "blob_weights" : 955,
      "K" : 176,
      "name" : "separable_conv_2_normal_left5_10_step_1",
      "has_batch_norm" : 0,
      "type" : "convolution",
      "n_groups" : 176,
      "pad_t" : 0,
      "has_biases" : 0,
      "C" : 176,
      "bottom" : "activation_163_output",
      "weights" : {

      },
      "pad_mode" : 1,
      "Nx" : 3,
      "pad_value" : 0,
      "Ny" : 3,
      "n_parallel" : 1
    },
    {
      "pad_r" : 0,
      "fused_relu" : 0,
      "fused_tanh" : 0,
      "pad_fill_mode" : 0,
      "pad_b" : 0,
      "pad_l" : 0,
      "top" : "separable_conv_2_bn_normal_left5_10_output",
      "blob_weights" : 959,
      "K" : 176,
      "blob_biases" : 957,
      "name" : "separable_conv_2_normal_left5_10_step_2",
      "has_batch_norm" : 0,
      "type" : "convolution",
      "n_groups" : 1,
      "pad_t" : 0,
      "has_biases" : 1,
      "C" : 176,
      "bottom" : "separable_conv_2_normal_left5_10_output_intermin_",
      "weights" : {

      },
      "pad_mode" : 1,
      "Nx" : 1,
      "pad_value" : 0,
      "Ny" : 1,
      "n_parallel" : 1
    },
    {
      "pad_value" : 0,
      "average_count_exclude_padding" : 1,
      "top_shape_style" : 0,
      "avg_or_max" : 0,
      "stride_x" : 1,
      "pad_mode" : 1,
      "stride_y" : 1,
      "pad_t" : 0,
      "weights" : {

      },
      "size_y" : 3,
      "type" : "pool",
      "pad_r" : 0,
      "pad_b" : 0,
      "size_x" : 3,
      "pad_fill_mode" : 0,
      "bottom" : "normal_bn_1_10_output",
      "pad_l" : 0,
      "name" : "normal_left3_10",
      "top" : "normal_left3_10_output"
    },
    {
      "pad_value" : 0,
      "average_count_exclude_padding" : 1,
      "top_shape_style" : 0,
      "avg_or_max" : 0,
      "stride_x" : 1,
      "pad_mode" : 1,
      "stride_y" : 1,
      "pad_t" : 0,
      "weights" : {

      },
      "size_y" : 3,
      "type" : "pool",
      "pad_r" : 0,
      "pad_b" : 0,
      "size_x" : 3,
      "pad_fill_mode" : 0,
      "bottom" : "adjust_bn_10_output",
      "pad_l" : 0,
      "name" : "normal_left4_10",
      "top" : "normal_left4_10_output"
    },
    {
      "pad_value" : 0,
      "average_count_exclude_padding" : 1,
      "top_shape_style" : 0,
      "avg_or_max" : 0,
      "stride_x" : 1,
      "pad_mode" : 1,
      "stride_y" : 1,
      "pad_t" : 0,
      "weights" : {

      },
      "size_y" : 3,
      "type" : "pool",
      "pad_r" : 0,
      "pad_b" : 0,
      "size_x" : 3,
      "pad_fill_mode" : 0,
      "bottom" : "adjust_bn_10_output",
      "pad_l" : 0,
      "name" : "normal_right4_10",
      "top" : "normal_right4_10_output"
    },
    {
      "alpha" : 1,
      "bottom" : "separable_conv_2_bn_normal_left1_10_output,separable_conv_2_bn_normal_right1_10_output",
      "operation" : 0,
      "weights" : {

      },
      "fused_relu" : 0,
      "top" : "normal_add_1_10_output",
      "type" : "elementwise",
      "name" : "normal_add_1_10",
      "beta" : 0
    },
    {
      "alpha" : 1,
      "bottom" : "separable_conv_2_bn_normal_left2_10_output,separable_conv_2_bn_normal_right2_10_output",
      "operation" : 0,
      "weights" : {

      },
      "fused_relu" : 0,
      "top" : "normal_add_2_10_output",
      "type" : "elementwise",
      "name" : "normal_add_2_10",
      "beta" : 0
    },
    {
      "alpha" : 1,
      "bottom" : "normal_left3_10_output,adjust_bn_10_output",
      "operation" : 0,
      "weights" : {

      },
      "fused_relu" : 0,
      "top" : "normal_add_3_10_output",
      "type" : "elementwise",
      "name" : "normal_add_3_10",
      "beta" : 0
    },
    {
      "alpha" : 1,
      "bottom" : "normal_left4_10_output,normal_right4_10_output",
      "operation" : 0,
      "weights" : {

      },
      "fused_relu" : 0,
      "top" : "normal_add_4_10_output",
      "type" : "elementwise",
      "name" : "normal_add_4_10",
      "beta" : 0
    },
    {
      "alpha" : 1,
      "bottom" : "separable_conv_2_bn_normal_left5_10_output,normal_bn_1_10_output",
      "operation" : 0,
      "weights" : {

      },
      "fused_relu" : 0,
      "top" : "normal_add_5_10_output",
      "type" : "elementwise",
      "name" : "normal_add_5_10",
      "beta" : 0
    },
    {
      "weights" : {

      },
      "top" : "normal_concat_10_output",
      "type" : "concat",
      "name" : "normal_concat_10",
      "bottom" : "adjust_bn_10_output,normal_add_1_10_output,normal_add_2_10_output,normal_add_3_10_output,normal_add_4_10_output,normal_add_5_10_output"
    },
    {
      "mode" : 0,
      "weights" : {

      },
      "top" : "activation_164_output",
      "type" : "activation",
      "name" : "activation_164",
      "bottom" : "normal_concat_9_output"
    },
    {
      "mode" : 0,
      "weights" : {

      },
      "top" : "activation_165_output",
      "type" : "activation",
      "name" : "activation_165",
      "bottom" : "normal_concat_10_output"
    },
    {
      "pad_r" : 0,
      "fused_relu" : 0,
      "fused_tanh" : 0,
      "pad_fill_mode" : 0,
      "pad_b" : 0,
      "pad_l" : 0,
      "top" : "adjust_bn_11_output",
      "blob_weights" : 963,
      "K" : 1056,
      "blob_biases" : 961,
      "name" : "adjust_conv_projection_11",
      "has_batch_norm" : 0,
      "type" : "convolution",
      "n_groups" : 1,
      "pad_t" : 0,
      "has_biases" : 1,
      "C" : 176,
      "bottom" : "activation_164_output",
      "weights" : {

      },
      "pad_mode" : 1,
      "Nx" : 1,
      "pad_value" : 0,
      "Ny" : 1,
      "n_parallel" : 1
    },
    {
      "pad_r" : 0,
      "fused_relu" : 0,
      "fused_tanh" : 0,
      "pad_fill_mode" : 0,
      "pad_b" : 0,
      "pad_l" : 0,
      "top" : "normal_bn_1_11_output",
      "blob_weights" : 967,
      "K" : 1056,
      "blob_biases" : 965,
      "name" : "normal_conv_1_11",
      "has_batch_norm" : 0,
      "type" : "convolution",
      "n_groups" : 1,
      "pad_t" : 0,
      "has_biases" : 1,
      "C" : 176,
      "bottom" : "activation_165_output",
      "weights" : {

      },
      "pad_mode" : 1,
      "Nx" : 1,
      "pad_value" : 0,
      "Ny" : 1,
      "n_parallel" : 1
    },
    {
      "mode" : 0,
      "weights" : {

      },
      "top" : "activation_166_output",
      "type" : "activation",
      "name" : "activation_166",
      "bottom" : "normal_bn_1_11_output"
    },
    {
      "mode" : 0,
      "weights" : {

      },
      "top" : "activation_168_output",
      "type" : "activation",
      "name" : "activation_168",
      "bottom" : "adjust_bn_11_output"
    },
    {
      "mode" : 0,
      "weights" : {

      },
      "top" : "activation_170_output",
      "type" : "activation",
      "name" : "activation_170",
      "bottom" : "adjust_bn_11_output"
    },
    {
      "mode" : 0,
      "weights" : {

      },
      "top" : "activation_172_output",
      "type" : "activation",
      "name" : "activation_172",
      "bottom" : "adjust_bn_11_output"
    },
    {
      "mode" : 0,
      "weights" : {

      },
      "top" : "activation_174_output",
      "type" : "activation",
      "name" : "activation_174",
      "bottom" : "normal_bn_1_11_output"
    },
    {
      "pad_r" : 0,
      "fused_relu" : 0,
      "fused_tanh" : 0,
      "pad_fill_mode" : 0,
      "pad_b" : 0,
      "pad_l" : 0,
      "top" : "separable_conv_1_normal_left1_11_output_intermin_",
      "blob_weights" : 969,
      "K" : 176,
      "name" : "separable_conv_1_normal_left1_11_step_1",
      "has_batch_norm" : 0,
      "type" : "convolution",
      "n_groups" : 176,
      "pad_t" : 0,
      "has_biases" : 0,
      "C" : 176,
      "bottom" : "activation_166_output",
      "weights" : {

      },
      "pad_mode" : 1,
      "Nx" : 5,
      "pad_value" : 0,
      "Ny" : 5,
      "n_parallel" : 1
    },
    {
      "pad_r" : 0,
      "fused_relu" : 1,
      "fused_tanh" : 0,
      "pad_fill_mode" : 0,
      "pad_b" : 0,
      "pad_l" : 0,
      "top" : "activation_167_output",
      "blob_weights" : 973,
      "K" : 176,
      "blob_biases" : 971,
      "name" : "separable_conv_1_normal_left1_11_step_2",
      "has_batch_norm" : 0,
      "type" : "convolution",
      "n_groups" : 1,
      "pad_t" : 0,
      "has_biases" : 1,
      "C" : 176,
      "bottom" : "separable_conv_1_normal_left1_11_output_intermin_",
      "weights" : {

      },
      "pad_mode" : 1,
      "Nx" : 1,
      "pad_value" : 0,
      "Ny" : 1,
      "n_parallel" : 1
    },
    {
      "pad_r" : 0,
      "fused_relu" : 0,
      "fused_tanh" : 0,
      "pad_fill_mode" : 0,
      "pad_b" : 0,
      "pad_l" : 0,
      "top" : "separable_conv_1_normal_right1_11_output_intermin_",
      "blob_weights" : 975,
      "K" : 176,
      "name" : "separable_conv_1_normal_right1_11_step_1",
      "has_batch_norm" : 0,
      "type" : "convolution",
      "n_groups" : 176,
      "pad_t" : 0,
      "has_biases" : 0,
      "C" : 176,
      "bottom" : "activation_168_output",
      "weights" : {

      },
      "pad_mode" : 1,
      "Nx" : 3,
      "pad_value" : 0,
      "Ny" : 3,
      "n_parallel" : 1
    },
    {
      "pad_r" : 0,
      "fused_relu" : 1,
      "fused_tanh" : 0,
      "pad_fill_mode" : 0,
      "pad_b" : 0,
      "pad_l" : 0,
      "top" : "activation_169_output",
      "blob_weights" : 979,
      "K" : 176,
      "blob_biases" : 977,
      "name" : "separable_conv_1_normal_right1_11_step_2",
      "has_batch_norm" : 0,
      "type" : "convolution",
      "n_groups" : 1,
      "pad_t" : 0,
      "has_biases" : 1,
      "C" : 176,
      "bottom" : "separable_conv_1_normal_right1_11_output_intermin_",
      "weights" : {

      },
      "pad_mode" : 1,
      "Nx" : 1,
      "pad_value" : 0,
      "Ny" : 1,
      "n_parallel" : 1
    },
    {
      "pad_r" : 0,
      "fused_relu" : 0,
      "fused_tanh" : 0,
      "pad_fill_mode" : 0,
      "pad_b" : 0,
      "pad_l" : 0,
      "top" : "separable_conv_1_normal_left2_11_output_intermin_",
      "blob_weights" : 981,
      "K" : 176,
      "name" : "separable_conv_1_normal_left2_11_step_1",
      "has_batch_norm" : 0,
      "type" : "convolution",
      "n_groups" : 176,
      "pad_t" : 0,
      "has_biases" : 0,
      "C" : 176,
      "bottom" : "activation_170_output",
      "weights" : {

      },
      "pad_mode" : 1,
      "Nx" : 5,
      "pad_value" : 0,
      "Ny" : 5,
      "n_parallel" : 1
    },
    {
      "pad_r" : 0,
      "fused_relu" : 1,
      "fused_tanh" : 0,
      "pad_fill_mode" : 0,
      "pad_b" : 0,
      "pad_l" : 0,
      "top" : "activation_171_output",
      "blob_weights" : 985,
      "K" : 176,
      "blob_biases" : 983,
      "name" : "separable_conv_1_normal_left2_11_step_2",
      "has_batch_norm" : 0,
      "type" : "convolution",
      "n_groups" : 1,
      "pad_t" : 0,
      "has_biases" : 1,
      "C" : 176,
      "bottom" : "separable_conv_1_normal_left2_11_output_intermin_",
      "weights" : {

      },
      "pad_mode" : 1,
      "Nx" : 1,
      "pad_value" : 0,
      "Ny" : 1,
      "n_parallel" : 1
    },
    {
      "pad_r" : 0,
      "fused_relu" : 0,
      "fused_tanh" : 0,
      "pad_fill_mode" : 0,
      "pad_b" : 0,
      "pad_l" : 0,
      "top" : "separable_conv_1_normal_right2_11_output_intermin_",
      "blob_weights" : 987,
      "K" : 176,
      "name" : "separable_conv_1_normal_right2_11_step_1",
      "has_batch_norm" : 0,
      "type" : "convolution",
      "n_groups" : 176,
      "pad_t" : 0,
      "has_biases" : 0,
      "C" : 176,
      "bottom" : "activation_172_output",
      "weights" : {

      },
      "pad_mode" : 1,
      "Nx" : 3,
      "pad_value" : 0,
      "Ny" : 3,
      "n_parallel" : 1
    },
    {
      "pad_r" : 0,
      "fused_relu" : 1,
      "fused_tanh" : 0,
      "pad_fill_mode" : 0,
      "pad_b" : 0,
      "pad_l" : 0,
      "top" : "activation_173_output",
      "blob_weights" : 991,
      "K" : 176,
      "blob_biases" : 989,
      "name" : "separable_conv_1_normal_right2_11_step_2",
      "has_batch_norm" : 0,
      "type" : "convolution",
      "n_groups" : 1,
      "pad_t" : 0,
      "has_biases" : 1,
      "C" : 176,
      "bottom" : "separable_conv_1_normal_right2_11_output_intermin_",
      "weights" : {

      },
      "pad_mode" : 1,
      "Nx" : 1,
      "pad_value" : 0,
      "Ny" : 1,
      "n_parallel" : 1
    },
    {
      "pad_r" : 0,
      "fused_relu" : 0,
      "fused_tanh" : 0,
      "pad_fill_mode" : 0,
      "pad_b" : 0,
      "pad_l" : 0,
      "top" : "separable_conv_1_normal_left5_11_output_intermin_",
      "blob_weights" : 993,
      "K" : 176,
      "name" : "separable_conv_1_normal_left5_11_step_1",
      "has_batch_norm" : 0,
      "type" : "convolution",
      "n_groups" : 176,
      "pad_t" : 0,
      "has_biases" : 0,
      "C" : 176,
      "bottom" : "activation_174_output",
      "weights" : {

      },
      "pad_mode" : 1,
      "Nx" : 3,
      "pad_value" : 0,
      "Ny" : 3,
      "n_parallel" : 1
    },
    {
      "pad_r" : 0,
      "fused_relu" : 1,
      "fused_tanh" : 0,
      "pad_fill_mode" : 0,
      "pad_b" : 0,
      "pad_l" : 0,
      "top" : "activation_175_output",
      "blob_weights" : 997,
      "K" : 176,
      "blob_biases" : 995,
      "name" : "separable_conv_1_normal_left5_11_step_2",
      "has_batch_norm" : 0,
      "type" : "convolution",
      "n_groups" : 1,
      "pad_t" : 0,
      "has_biases" : 1,
      "C" : 176,
      "bottom" : "separable_conv_1_normal_left5_11_output_intermin_",
      "weights" : {

      },
      "pad_mode" : 1,
      "Nx" : 1,
      "pad_value" : 0,
      "Ny" : 1,
      "n_parallel" : 1
    },
    {
      "pad_r" : 0,
      "fused_relu" : 0,
      "fused_tanh" : 0,
      "pad_fill_mode" : 0,
      "pad_b" : 0,
      "pad_l" : 0,
      "top" : "separable_conv_2_normal_left1_11_output_intermin_",
      "blob_weights" : 999,
      "K" : 176,
      "name" : "separable_conv_2_normal_left1_11_step_1",
      "has_batch_norm" : 0,
      "type" : "convolution",
      "n_groups" : 176,
      "pad_t" : 0,
      "has_biases" : 0,
      "C" : 176,
      "bottom" : "activation_167_output",
      "weights" : {

      },
      "pad_mode" : 1,
      "Nx" : 5,
      "pad_value" : 0,
      "Ny" : 5,
      "n_parallel" : 1
    },
    {
      "pad_r" : 0,
      "fused_relu" : 0,
      "fused_tanh" : 0,
      "pad_fill_mode" : 0,
      "pad_b" : 0,
      "pad_l" : 0,
      "top" : "separable_conv_2_bn_normal_left1_11_output",
      "blob_weights" : 1003,
      "K" : 176,
      "blob_biases" : 1001,
      "name" : "separable_conv_2_normal_left1_11_step_2",
      "has_batch_norm" : 0,
      "type" : "convolution",
      "n_groups" : 1,
      "pad_t" : 0,
      "has_biases" : 1,
      "C" : 176,
      "bottom" : "separable_conv_2_normal_left1_11_output_intermin_",
      "weights" : {

      },
      "pad_mode" : 1,
      "Nx" : 1,
      "pad_value" : 0,
      "Ny" : 1,
      "n_parallel" : 1
    },
    {
      "pad_r" : 0,
      "fused_relu" : 0,
      "fused_tanh" : 0,
      "pad_fill_mode" : 0,
      "pad_b" : 0,
      "pad_l" : 0,
      "top" : "separable_conv_2_normal_right1_11_output_intermin_",
      "blob_weights" : 1005,
      "K" : 176,
      "name" : "separable_conv_2_normal_right1_11_step_1",
      "has_batch_norm" : 0,
      "type" : "convolution",
      "n_groups" : 176,
      "pad_t" : 0,
      "has_biases" : 0,
      "C" : 176,
      "bottom" : "activation_169_output",
      "weights" : {

      },
      "pad_mode" : 1,
      "Nx" : 3,
      "pad_value" : 0,
      "Ny" : 3,
      "n_parallel" : 1
    },
    {
      "pad_r" : 0,
      "fused_relu" : 0,
      "fused_tanh" : 0,
      "pad_fill_mode" : 0,
      "pad_b" : 0,
      "pad_l" : 0,
      "top" : "separable_conv_2_bn_normal_right1_11_output",
      "blob_weights" : 1009,
      "K" : 176,
      "blob_biases" : 1007,
      "name" : "separable_conv_2_normal_right1_11_step_2",
      "has_batch_norm" : 0,
      "type" : "convolution",
      "n_groups" : 1,
      "pad_t" : 0,
      "has_biases" : 1,
      "C" : 176,
      "bottom" : "separable_conv_2_normal_right1_11_output_intermin_",
      "weights" : {

      },
      "pad_mode" : 1,
      "Nx" : 1,
      "pad_value" : 0,
      "Ny" : 1,
      "n_parallel" : 1
    },
    {
      "pad_r" : 0,
      "fused_relu" : 0,
      "fused_tanh" : 0,
      "pad_fill_mode" : 0,
      "pad_b" : 0,
      "pad_l" : 0,
      "top" : "separable_conv_2_normal_left2_11_output_intermin_",
      "blob_weights" : 1011,
      "K" : 176,
      "name" : "separable_conv_2_normal_left2_11_step_1",
      "has_batch_norm" : 0,
      "type" : "convolution",
      "n_groups" : 176,
      "pad_t" : 0,
      "has_biases" : 0,
      "C" : 176,
      "bottom" : "activation_171_output",
      "weights" : {

      },
      "pad_mode" : 1,
      "Nx" : 5,
      "pad_value" : 0,
      "Ny" : 5,
      "n_parallel" : 1
    },
    {
      "pad_r" : 0,
      "fused_relu" : 0,
      "fused_tanh" : 0,
      "pad_fill_mode" : 0,
      "pad_b" : 0,
      "pad_l" : 0,
      "top" : "separable_conv_2_bn_normal_left2_11_output",
      "blob_weights" : 1015,
      "K" : 176,
      "blob_biases" : 1013,
      "name" : "separable_conv_2_normal_left2_11_step_2",
      "has_batch_norm" : 0,
      "type" : "convolution",
      "n_groups" : 1,
      "pad_t" : 0,
      "has_biases" : 1,
      "C" : 176,
      "bottom" : "separable_conv_2_normal_left2_11_output_intermin_",
      "weights" : {

      },
      "pad_mode" : 1,
      "Nx" : 1,
      "pad_value" : 0,
      "Ny" : 1,
      "n_parallel" : 1
    },
    {
      "pad_r" : 0,
      "fused_relu" : 0,
      "fused_tanh" : 0,
      "pad_fill_mode" : 0,
      "pad_b" : 0,
      "pad_l" : 0,
      "top" : "separable_conv_2_normal_right2_11_output_intermin_",
      "blob_weights" : 1017,
      "K" : 176,
      "name" : "separable_conv_2_normal_right2_11_step_1",
      "has_batch_norm" : 0,
      "type" : "convolution",
      "n_groups" : 176,
      "pad_t" : 0,
      "has_biases" : 0,
      "C" : 176,
      "bottom" : "activation_173_output",
      "weights" : {

      },
      "pad_mode" : 1,
      "Nx" : 3,
      "pad_value" : 0,
      "Ny" : 3,
      "n_parallel" : 1
    },
    {
      "pad_r" : 0,
      "fused_relu" : 0,
      "fused_tanh" : 0,
      "pad_fill_mode" : 0,
      "pad_b" : 0,
      "pad_l" : 0,
      "top" : "separable_conv_2_bn_normal_right2_11_output",
      "blob_weights" : 1021,
      "K" : 176,
      "blob_biases" : 1019,
      "name" : "separable_conv_2_normal_right2_11_step_2",
      "has_batch_norm" : 0,
      "type" : "convolution",
      "n_groups" : 1,
      "pad_t" : 0,
      "has_biases" : 1,
      "C" : 176,
      "bottom" : "separable_conv_2_normal_right2_11_output_intermin_",
      "weights" : {

      },
      "pad_mode" : 1,
      "Nx" : 1,
      "pad_value" : 0,
      "Ny" : 1,
      "n_parallel" : 1
    },
    {
      "pad_r" : 0,
      "fused_relu" : 0,
      "fused_tanh" : 0,
      "pad_fill_mode" : 0,
      "pad_b" : 0,
      "pad_l" : 0,
      "top" : "separable_conv_2_normal_left5_11_output_intermin_",
      "blob_weights" : 1023,
      "K" : 176,
      "name" : "separable_conv_2_normal_left5_11_step_1",
      "has_batch_norm" : 0,
      "type" : "convolution",
      "n_groups" : 176,
      "pad_t" : 0,
      "has_biases" : 0,
      "C" : 176,
      "bottom" : "activation_175_output",
      "weights" : {

      },
      "pad_mode" : 1,
      "Nx" : 3,
      "pad_value" : 0,
      "Ny" : 3,
      "n_parallel" : 1
    },
    {
      "pad_r" : 0,
      "fused_relu" : 0,
      "fused_tanh" : 0,
      "pad_fill_mode" : 0,
      "pad_b" : 0,
      "pad_l" : 0,
      "top" : "separable_conv_2_bn_normal_left5_11_output",
      "blob_weights" : 1027,
      "K" : 176,
      "blob_biases" : 1025,
      "name" : "separable_conv_2_normal_left5_11_step_2",
      "has_batch_norm" : 0,
      "type" : "convolution",
      "n_groups" : 1,
      "pad_t" : 0,
      "has_biases" : 1,
      "C" : 176,
      "bottom" : "separable_conv_2_normal_left5_11_output_intermin_",
      "weights" : {

      },
      "pad_mode" : 1,
      "Nx" : 1,
      "pad_value" : 0,
      "Ny" : 1,
      "n_parallel" : 1
    },
    {
      "pad_value" : 0,
      "average_count_exclude_padding" : 1,
      "top_shape_style" : 0,
      "avg_or_max" : 0,
      "stride_x" : 1,
      "pad_mode" : 1,
      "stride_y" : 1,
      "pad_t" : 0,
      "weights" : {

      },
      "size_y" : 3,
      "type" : "pool",
      "pad_r" : 0,
      "pad_b" : 0,
      "size_x" : 3,
      "pad_fill_mode" : 0,
      "bottom" : "normal_bn_1_11_output",
      "pad_l" : 0,
      "name" : "normal_left3_11",
      "top" : "normal_left3_11_output"
    },
    {
      "pad_value" : 0,
      "average_count_exclude_padding" : 1,
      "top_shape_style" : 0,
      "avg_or_max" : 0,
      "stride_x" : 1,
      "pad_mode" : 1,
      "stride_y" : 1,
      "pad_t" : 0,
      "weights" : {

      },
      "size_y" : 3,
      "type" : "pool",
      "pad_r" : 0,
      "pad_b" : 0,
      "size_x" : 3,
      "pad_fill_mode" : 0,
      "bottom" : "adjust_bn_11_output",
      "pad_l" : 0,
      "name" : "normal_left4_11",
      "top" : "normal_left4_11_output"
    },
    {
      "pad_value" : 0,
      "average_count_exclude_padding" : 1,
      "top_shape_style" : 0,
      "avg_or_max" : 0,
      "stride_x" : 1,
      "pad_mode" : 1,
      "stride_y" : 1,
      "pad_t" : 0,
      "weights" : {

      },
      "size_y" : 3,
      "type" : "pool",
      "pad_r" : 0,
      "pad_b" : 0,
      "size_x" : 3,
      "pad_fill_mode" : 0,
      "bottom" : "adjust_bn_11_output",
      "pad_l" : 0,
      "name" : "normal_right4_11",
      "top" : "normal_right4_11_output"
    },
    {
      "alpha" : 1,
      "bottom" : "separable_conv_2_bn_normal_left1_11_output,separable_conv_2_bn_normal_right1_11_output",
      "operation" : 0,
      "weights" : {

      },
      "fused_relu" : 0,
      "top" : "normal_add_1_11_output",
      "type" : "elementwise",
      "name" : "normal_add_1_11",
      "beta" : 0
    },
    {
      "alpha" : 1,
      "bottom" : "separable_conv_2_bn_normal_left2_11_output,separable_conv_2_bn_normal_right2_11_output",
      "operation" : 0,
      "weights" : {

      },
      "fused_relu" : 0,
      "top" : "normal_add_2_11_output",
      "type" : "elementwise",
      "name" : "normal_add_2_11",
      "beta" : 0
    },
    {
      "alpha" : 1,
      "bottom" : "normal_left3_11_output,adjust_bn_11_output",
      "operation" : 0,
      "weights" : {

      },
      "fused_relu" : 0,
      "top" : "normal_add_3_11_output",
      "type" : "elementwise",
      "name" : "normal_add_3_11",
      "beta" : 0
    },
    {
      "alpha" : 1,
      "bottom" : "normal_left4_11_output,normal_right4_11_output",
      "operation" : 0,
      "weights" : {

      },
      "fused_relu" : 0,
      "top" : "normal_add_4_11_output",
      "type" : "elementwise",
      "name" : "normal_add_4_11",
      "beta" : 0
    },
    {
      "alpha" : 1,
      "bottom" : "separable_conv_2_bn_normal_left5_11_output,normal_bn_1_11_output",
      "operation" : 0,
      "weights" : {

      },
      "fused_relu" : 0,
      "top" : "normal_add_5_11_output",
      "type" : "elementwise",
      "name" : "normal_add_5_11",
      "beta" : 0
    },
    {
      "weights" : {

      },
      "top" : "normal_concat_11_output",
      "type" : "concat",
      "name" : "normal_concat_11",
      "bottom" : "adjust_bn_11_output,normal_add_1_11_output,normal_add_2_11_output,normal_add_3_11_output,normal_add_4_11_output,normal_add_5_11_output"
    },
    {
      "mode" : 0,
      "weights" : {

      },
      "top" : "activation_176_output",
      "type" : "activation",
      "name" : "activation_176",
      "bottom" : "normal_concat_10_output"
    },
    {
      "mode" : 0,
      "weights" : {

      },
      "top" : "activation_177_output",
      "type" : "activation",
      "name" : "activation_177",
      "bottom" : "normal_concat_11_output"
    },
    {
      "pad_r" : 0,
      "fused_relu" : 0,
      "fused_tanh" : 0,
      "pad_fill_mode" : 0,
      "pad_b" : 0,
      "pad_l" : 0,
      "top" : "adjust_bn_12_output",
      "blob_weights" : 1031,
      "K" : 1056,
      "blob_biases" : 1029,
      "name" : "adjust_conv_projection_12",
      "has_batch_norm" : 0,
      "type" : "convolution",
      "n_groups" : 1,
      "pad_t" : 0,
      "has_biases" : 1,
      "C" : 176,
      "bottom" : "activation_176_output",
      "weights" : {

      },
      "pad_mode" : 1,
      "Nx" : 1,
      "pad_value" : 0,
      "Ny" : 1,
      "n_parallel" : 1
    },
    {
      "pad_r" : 0,
      "fused_relu" : 0,
      "fused_tanh" : 0,
      "pad_fill_mode" : 0,
      "pad_b" : 0,
      "pad_l" : 0,
      "top" : "normal_bn_1_12_output",
      "blob_weights" : 1035,
      "K" : 1056,
      "blob_biases" : 1033,
      "name" : "normal_conv_1_12",
      "has_batch_norm" : 0,
      "type" : "convolution",
      "n_groups" : 1,
      "pad_t" : 0,
      "has_biases" : 1,
      "C" : 176,
      "bottom" : "activation_177_output",
      "weights" : {

      },
      "pad_mode" : 1,
      "Nx" : 1,
      "pad_value" : 0,
      "Ny" : 1,
      "n_parallel" : 1
    },
    {
      "mode" : 0,
      "weights" : {

      },
      "top" : "activation_178_output",
      "type" : "activation",
      "name" : "activation_178",
      "bottom" : "normal_bn_1_12_output"
    },
    {
      "mode" : 0,
      "weights" : {

      },
      "top" : "activation_180_output",
      "type" : "activation",
      "name" : "activation_180",
      "bottom" : "adjust_bn_12_output"
    },
    {
      "mode" : 0,
      "weights" : {

      },
      "top" : "activation_182_output",
      "type" : "activation",
      "name" : "activation_182",
      "bottom" : "adjust_bn_12_output"
    },
    {
      "mode" : 0,
      "weights" : {

      },
      "top" : "activation_184_output",
      "type" : "activation",
      "name" : "activation_184",
      "bottom" : "adjust_bn_12_output"
    },
    {
      "mode" : 0,
      "weights" : {

      },
      "top" : "activation_186_output",
      "type" : "activation",
      "name" : "activation_186",
      "bottom" : "normal_bn_1_12_output"
    },
    {
      "pad_r" : 0,
      "fused_relu" : 0,
      "fused_tanh" : 0,
      "pad_fill_mode" : 0,
      "pad_b" : 0,
      "pad_l" : 0,
      "top" : "separable_conv_1_normal_left1_12_output_intermin_",
      "blob_weights" : 1037,
      "K" : 176,
      "name" : "separable_conv_1_normal_left1_12_step_1",
      "has_batch_norm" : 0,
      "type" : "convolution",
      "n_groups" : 176,
      "pad_t" : 0,
      "has_biases" : 0,
      "C" : 176,
      "bottom" : "activation_178_output",
      "weights" : {

      },
      "pad_mode" : 1,
      "Nx" : 5,
      "pad_value" : 0,
      "Ny" : 5,
      "n_parallel" : 1
    },
    {
      "pad_r" : 0,
      "fused_relu" : 1,
      "fused_tanh" : 0,
      "pad_fill_mode" : 0,
      "pad_b" : 0,
      "pad_l" : 0,
      "top" : "activation_179_output",
      "blob_weights" : 1041,
      "K" : 176,
      "blob_biases" : 1039,
      "name" : "separable_conv_1_normal_left1_12_step_2",
      "has_batch_norm" : 0,
      "type" : "convolution",
      "n_groups" : 1,
      "pad_t" : 0,
      "has_biases" : 1,
      "C" : 176,
      "bottom" : "separable_conv_1_normal_left1_12_output_intermin_",
      "weights" : {

      },
      "pad_mode" : 1,
      "Nx" : 1,
      "pad_value" : 0,
      "Ny" : 1,
      "n_parallel" : 1
    },
    {
      "pad_r" : 0,
      "fused_relu" : 0,
      "fused_tanh" : 0,
      "pad_fill_mode" : 0,
      "pad_b" : 0,
      "pad_l" : 0,
      "top" : "separable_conv_1_normal_right1_12_output_intermin_",
      "blob_weights" : 1043,
      "K" : 176,
      "name" : "separable_conv_1_normal_right1_12_step_1",
      "has_batch_norm" : 0,
      "type" : "convolution",
      "n_groups" : 176,
      "pad_t" : 0,
      "has_biases" : 0,
      "C" : 176,
      "bottom" : "activation_180_output",
      "weights" : {

      },
      "pad_mode" : 1,
      "Nx" : 3,
      "pad_value" : 0,
      "Ny" : 3,
      "n_parallel" : 1
    },
    {
      "pad_r" : 0,
      "fused_relu" : 1,
      "fused_tanh" : 0,
      "pad_fill_mode" : 0,
      "pad_b" : 0,
      "pad_l" : 0,
      "top" : "activation_181_output",
      "blob_weights" : 1047,
      "K" : 176,
      "blob_biases" : 1045,
      "name" : "separable_conv_1_normal_right1_12_step_2",
      "has_batch_norm" : 0,
      "type" : "convolution",
      "n_groups" : 1,
      "pad_t" : 0,
      "has_biases" : 1,
      "C" : 176,
      "bottom" : "separable_conv_1_normal_right1_12_output_intermin_",
      "weights" : {

      },
      "pad_mode" : 1,
      "Nx" : 1,
      "pad_value" : 0,
      "Ny" : 1,
      "n_parallel" : 1
    },
    {
      "pad_r" : 0,
      "fused_relu" : 0,
      "fused_tanh" : 0,
      "pad_fill_mode" : 0,
      "pad_b" : 0,
      "pad_l" : 0,
      "top" : "separable_conv_1_normal_left2_12_output_intermin_",
      "blob_weights" : 1049,
      "K" : 176,
      "name" : "separable_conv_1_normal_left2_12_step_1",
      "has_batch_norm" : 0,
      "type" : "convolution",
      "n_groups" : 176,
      "pad_t" : 0,
      "has_biases" : 0,
      "C" : 176,
      "bottom" : "activation_182_output",
      "weights" : {

      },
      "pad_mode" : 1,
      "Nx" : 5,
      "pad_value" : 0,
      "Ny" : 5,
      "n_parallel" : 1
    },
    {
      "pad_r" : 0,
      "fused_relu" : 1,
      "fused_tanh" : 0,
      "pad_fill_mode" : 0,
      "pad_b" : 0,
      "pad_l" : 0,
      "top" : "activation_183_output",
      "blob_weights" : 1053,
      "K" : 176,
      "blob_biases" : 1051,
      "name" : "separable_conv_1_normal_left2_12_step_2",
      "has_batch_norm" : 0,
      "type" : "convolution",
      "n_groups" : 1,
      "pad_t" : 0,
      "has_biases" : 1,
      "C" : 176,
      "bottom" : "separable_conv_1_normal_left2_12_output_intermin_",
      "weights" : {

      },
      "pad_mode" : 1,
      "Nx" : 1,
      "pad_value" : 0,
      "Ny" : 1,
      "n_parallel" : 1
    },
    {
      "pad_r" : 0,
      "fused_relu" : 0,
      "fused_tanh" : 0,
      "pad_fill_mode" : 0,
      "pad_b" : 0,
      "pad_l" : 0,
      "top" : "separable_conv_1_normal_right2_12_output_intermin_",
      "blob_weights" : 1055,
      "K" : 176,
      "name" : "separable_conv_1_normal_right2_12_step_1",
      "has_batch_norm" : 0,
      "type" : "convolution",
      "n_groups" : 176,
      "pad_t" : 0,
      "has_biases" : 0,
      "C" : 176,
      "bottom" : "activation_184_output",
      "weights" : {

      },
      "pad_mode" : 1,
      "Nx" : 3,
      "pad_value" : 0,
      "Ny" : 3,
      "n_parallel" : 1
    },
    {
      "pad_r" : 0,
      "fused_relu" : 1,
      "fused_tanh" : 0,
      "pad_fill_mode" : 0,
      "pad_b" : 0,
      "pad_l" : 0,
      "top" : "activation_185_output",
      "blob_weights" : 1059,
      "K" : 176,
      "blob_biases" : 1057,
      "name" : "separable_conv_1_normal_right2_12_step_2",
      "has_batch_norm" : 0,
      "type" : "convolution",
      "n_groups" : 1,
      "pad_t" : 0,
      "has_biases" : 1,
      "C" : 176,
      "bottom" : "separable_conv_1_normal_right2_12_output_intermin_",
      "weights" : {

      },
      "pad_mode" : 1,
      "Nx" : 1,
      "pad_value" : 0,
      "Ny" : 1,
      "n_parallel" : 1
    },
    {
      "pad_r" : 0,
      "fused_relu" : 0,
      "fused_tanh" : 0,
      "pad_fill_mode" : 0,
      "pad_b" : 0,
      "pad_l" : 0,
      "top" : "separable_conv_1_normal_left5_12_output_intermin_",
      "blob_weights" : 1061,
      "K" : 176,
      "name" : "separable_conv_1_normal_left5_12_step_1",
      "has_batch_norm" : 0,
      "type" : "convolution",
      "n_groups" : 176,
      "pad_t" : 0,
      "has_biases" : 0,
      "C" : 176,
      "bottom" : "activation_186_output",
      "weights" : {

      },
      "pad_mode" : 1,
      "Nx" : 3,
      "pad_value" : 0,
      "Ny" : 3,
      "n_parallel" : 1
    },
    {
      "pad_r" : 0,
      "fused_relu" : 1,
      "fused_tanh" : 0,
      "pad_fill_mode" : 0,
      "pad_b" : 0,
      "pad_l" : 0,
      "top" : "activation_187_output",
      "blob_weights" : 1065,
      "K" : 176,
      "blob_biases" : 1063,
      "name" : "separable_conv_1_normal_left5_12_step_2",
      "has_batch_norm" : 0,
      "type" : "convolution",
      "n_groups" : 1,
      "pad_t" : 0,
      "has_biases" : 1,
      "C" : 176,
      "bottom" : "separable_conv_1_normal_left5_12_output_intermin_",
      "weights" : {

      },
      "pad_mode" : 1,
      "Nx" : 1,
      "pad_value" : 0,
      "Ny" : 1,
      "n_parallel" : 1
    },
    {
      "pad_r" : 0,
      "fused_relu" : 0,
      "fused_tanh" : 0,
      "pad_fill_mode" : 0,
      "pad_b" : 0,
      "pad_l" : 0,
      "top" : "separable_conv_2_normal_left1_12_output_intermin_",
      "blob_weights" : 1067,
      "K" : 176,
      "name" : "separable_conv_2_normal_left1_12_step_1",
      "has_batch_norm" : 0,
      "type" : "convolution",
      "n_groups" : 176,
      "pad_t" : 0,
      "has_biases" : 0,
      "C" : 176,
      "bottom" : "activation_179_output",
      "weights" : {

      },
      "pad_mode" : 1,
      "Nx" : 5,
      "pad_value" : 0,
      "Ny" : 5,
      "n_parallel" : 1
    },
    {
      "pad_r" : 0,
      "fused_relu" : 0,
      "fused_tanh" : 0,
      "pad_fill_mode" : 0,
      "pad_b" : 0,
      "pad_l" : 0,
      "top" : "separable_conv_2_bn_normal_left1_12_output",
      "blob_weights" : 1071,
      "K" : 176,
      "blob_biases" : 1069,
      "name" : "separable_conv_2_normal_left1_12_step_2",
      "has_batch_norm" : 0,
      "type" : "convolution",
      "n_groups" : 1,
      "pad_t" : 0,
      "has_biases" : 1,
      "C" : 176,
      "bottom" : "separable_conv_2_normal_left1_12_output_intermin_",
      "weights" : {

      },
      "pad_mode" : 1,
      "Nx" : 1,
      "pad_value" : 0,
      "Ny" : 1,
      "n_parallel" : 1
    },
    {
      "pad_r" : 0,
      "fused_relu" : 0,
      "fused_tanh" : 0,
      "pad_fill_mode" : 0,
      "pad_b" : 0,
      "pad_l" : 0,
      "top" : "separable_conv_2_normal_right1_12_output_intermin_",
      "blob_weights" : 1073,
      "K" : 176,
      "name" : "separable_conv_2_normal_right1_12_step_1",
      "has_batch_norm" : 0,
      "type" : "convolution",
      "n_groups" : 176,
      "pad_t" : 0,
      "has_biases" : 0,
      "C" : 176,
      "bottom" : "activation_181_output",
      "weights" : {

      },
      "pad_mode" : 1,
      "Nx" : 3,
      "pad_value" : 0,
      "Ny" : 3,
      "n_parallel" : 1
    },
    {
      "pad_r" : 0,
      "fused_relu" : 0,
      "fused_tanh" : 0,
      "pad_fill_mode" : 0,
      "pad_b" : 0,
      "pad_l" : 0,
      "top" : "separable_conv_2_bn_normal_right1_12_output",
      "blob_weights" : 1077,
      "K" : 176,
      "blob_biases" : 1075,
      "name" : "separable_conv_2_normal_right1_12_step_2",
      "has_batch_norm" : 0,
      "type" : "convolution",
      "n_groups" : 1,
      "pad_t" : 0,
      "has_biases" : 1,
      "C" : 176,
      "bottom" : "separable_conv_2_normal_right1_12_output_intermin_",
      "weights" : {

      },
      "pad_mode" : 1,
      "Nx" : 1,
      "pad_value" : 0,
      "Ny" : 1,
      "n_parallel" : 1
    },
    {
      "pad_r" : 0,
      "fused_relu" : 0,
      "fused_tanh" : 0,
      "pad_fill_mode" : 0,
      "pad_b" : 0,
      "pad_l" : 0,
      "top" : "separable_conv_2_normal_left2_12_output_intermin_",
      "blob_weights" : 1079,
      "K" : 176,
      "name" : "separable_conv_2_normal_left2_12_step_1",
      "has_batch_norm" : 0,
      "type" : "convolution",
      "n_groups" : 176,
      "pad_t" : 0,
      "has_biases" : 0,
      "C" : 176,
      "bottom" : "activation_183_output",
      "weights" : {

      },
      "pad_mode" : 1,
      "Nx" : 5,
      "pad_value" : 0,
      "Ny" : 5,
      "n_parallel" : 1
    },
    {
      "pad_r" : 0,
      "fused_relu" : 0,
      "fused_tanh" : 0,
      "pad_fill_mode" : 0,
      "pad_b" : 0,
      "pad_l" : 0,
      "top" : "separable_conv_2_bn_normal_left2_12_output",
      "blob_weights" : 1083,
      "K" : 176,
      "blob_biases" : 1081,
      "name" : "separable_conv_2_normal_left2_12_step_2",
      "has_batch_norm" : 0,
      "type" : "convolution",
      "n_groups" : 1,
      "pad_t" : 0,
      "has_biases" : 1,
      "C" : 176,
      "bottom" : "separable_conv_2_normal_left2_12_output_intermin_",
      "weights" : {

      },
      "pad_mode" : 1,
      "Nx" : 1,
      "pad_value" : 0,
      "Ny" : 1,
      "n_parallel" : 1
    },
    {
      "pad_r" : 0,
      "fused_relu" : 0,
      "fused_tanh" : 0,
      "pad_fill_mode" : 0,
      "pad_b" : 0,
      "pad_l" : 0,
      "top" : "separable_conv_2_normal_right2_12_output_intermin_",
      "blob_weights" : 1085,
      "K" : 176,
      "name" : "separable_conv_2_normal_right2_12_step_1",
      "has_batch_norm" : 0,
      "type" : "convolution",
      "n_groups" : 176,
      "pad_t" : 0,
      "has_biases" : 0,
      "C" : 176,
      "bottom" : "activation_185_output",
      "weights" : {

      },
      "pad_mode" : 1,
      "Nx" : 3,
      "pad_value" : 0,
      "Ny" : 3,
      "n_parallel" : 1
    },
    {
      "pad_r" : 0,
      "fused_relu" : 0,
      "fused_tanh" : 0,
      "pad_fill_mode" : 0,
      "pad_b" : 0,
      "pad_l" : 0,
      "top" : "separable_conv_2_bn_normal_right2_12_output",
      "blob_weights" : 1089,
      "K" : 176,
      "blob_biases" : 1087,
      "name" : "separable_conv_2_normal_right2_12_step_2",
      "has_batch_norm" : 0,
      "type" : "convolution",
      "n_groups" : 1,
      "pad_t" : 0,
      "has_biases" : 1,
      "C" : 176,
      "bottom" : "separable_conv_2_normal_right2_12_output_intermin_",
      "weights" : {

      },
      "pad_mode" : 1,
      "Nx" : 1,
      "pad_value" : 0,
      "Ny" : 1,
      "n_parallel" : 1
    },
    {
      "pad_r" : 0,
      "fused_relu" : 0,
      "fused_tanh" : 0,
      "pad_fill_mode" : 0,
      "pad_b" : 0,
      "pad_l" : 0,
      "top" : "separable_conv_2_normal_left5_12_output_intermin_",
      "blob_weights" : 1091,
      "K" : 176,
      "name" : "separable_conv_2_normal_left5_12_step_1",
      "has_batch_norm" : 0,
      "type" : "convolution",
      "n_groups" : 176,
      "pad_t" : 0,
      "has_biases" : 0,
      "C" : 176,
      "bottom" : "activation_187_output",
      "weights" : {

      },
      "pad_mode" : 1,
      "Nx" : 3,
      "pad_value" : 0,
      "Ny" : 3,
      "n_parallel" : 1
    },
    {
      "pad_r" : 0,
      "fused_relu" : 0,
      "fused_tanh" : 0,
      "pad_fill_mode" : 0,
      "pad_b" : 0,
      "pad_l" : 0,
      "top" : "separable_conv_2_bn_normal_left5_12_output",
      "blob_weights" : 1095,
      "K" : 176,
      "blob_biases" : 1093,
      "name" : "separable_conv_2_normal_left5_12_step_2",
      "has_batch_norm" : 0,
      "type" : "convolution",
      "n_groups" : 1,
      "pad_t" : 0,
      "has_biases" : 1,
      "C" : 176,
      "bottom" : "separable_conv_2_normal_left5_12_output_intermin_",
      "weights" : {

      },
      "pad_mode" : 1,
      "Nx" : 1,
      "pad_value" : 0,
      "Ny" : 1,
      "n_parallel" : 1
    },
    {
      "pad_value" : 0,
      "average_count_exclude_padding" : 1,
      "top_shape_style" : 0,
      "avg_or_max" : 0,
      "stride_x" : 1,
      "pad_mode" : 1,
      "stride_y" : 1,
      "pad_t" : 0,
      "weights" : {

      },
      "size_y" : 3,
      "type" : "pool",
      "pad_r" : 0,
      "pad_b" : 0,
      "size_x" : 3,
      "pad_fill_mode" : 0,
      "bottom" : "normal_bn_1_12_output",
      "pad_l" : 0,
      "name" : "normal_left3_12",
      "top" : "normal_left3_12_output"
    },
    {
      "pad_value" : 0,
      "average_count_exclude_padding" : 1,
      "top_shape_style" : 0,
      "avg_or_max" : 0,
      "stride_x" : 1,
      "pad_mode" : 1,
      "stride_y" : 1,
      "pad_t" : 0,
      "weights" : {

      },
      "size_y" : 3,
      "type" : "pool",
      "pad_r" : 0,
      "pad_b" : 0,
      "size_x" : 3,
      "pad_fill_mode" : 0,
      "bottom" : "adjust_bn_12_output",
      "pad_l" : 0,
      "name" : "normal_left4_12",
      "top" : "normal_left4_12_output"
    },
    {
      "pad_value" : 0,
      "average_count_exclude_padding" : 1,
      "top_shape_style" : 0,
      "avg_or_max" : 0,
      "stride_x" : 1,
      "pad_mode" : 1,
      "stride_y" : 1,
      "pad_t" : 0,
      "weights" : {

      },
      "size_y" : 3,
      "type" : "pool",
      "pad_r" : 0,
      "pad_b" : 0,
      "size_x" : 3,
      "pad_fill_mode" : 0,
      "bottom" : "adjust_bn_12_output",
      "pad_l" : 0,
      "name" : "normal_right4_12",
      "top" : "normal_right4_12_output"
    },
    {
      "alpha" : 1,
      "bottom" : "separable_conv_2_bn_normal_left1_12_output,separable_conv_2_bn_normal_right1_12_output",
      "operation" : 0,
      "weights" : {

      },
      "fused_relu" : 0,
      "top" : "normal_add_1_12_output",
      "type" : "elementwise",
      "name" : "normal_add_1_12",
      "beta" : 0
    },
    {
      "alpha" : 1,
      "bottom" : "separable_conv_2_bn_normal_left2_12_output,separable_conv_2_bn_normal_right2_12_output",
      "operation" : 0,
      "weights" : {

      },
      "fused_relu" : 0,
      "top" : "normal_add_2_12_output",
      "type" : "elementwise",
      "name" : "normal_add_2_12",
      "beta" : 0
    },
    {
      "alpha" : 1,
      "bottom" : "normal_left3_12_output,adjust_bn_12_output",
      "operation" : 0,
      "weights" : {

      },
      "fused_relu" : 0,
      "top" : "normal_add_3_12_output",
      "type" : "elementwise",
      "name" : "normal_add_3_12",
      "beta" : 0
    },
    {
      "alpha" : 1,
      "bottom" : "normal_left4_12_output,normal_right4_12_output",
      "operation" : 0,
      "weights" : {

      },
      "fused_relu" : 0,
      "top" : "normal_add_4_12_output",
      "type" : "elementwise",
      "name" : "normal_add_4_12",
      "beta" : 0
    },
    {
      "alpha" : 1,
      "bottom" : "separable_conv_2_bn_normal_left5_12_output,normal_bn_1_12_output",
      "operation" : 0,
      "weights" : {

      },
      "fused_relu" : 0,
      "top" : "normal_add_5_12_output",
      "type" : "elementwise",
      "name" : "normal_add_5_12",
      "beta" : 0
    },
    {
      "weights" : {

      },
      "top" : "normal_concat_12_output",
      "type" : "concat",
      "name" : "normal_concat_12",
      "bottom" : "adjust_bn_12_output,normal_add_1_12_output,normal_add_2_12_output,normal_add_3_12_output,normal_add_4_12_output,normal_add_5_12_output"
    },
    {
      "mode" : 0,
      "weights" : {

      },
      "top" : "activation_188_output",
      "type" : "activation",
      "name" : "activation_188",
      "bottom" : "normal_concat_12_output"
    },
    {
      "pad_r" : 0,
      "pad_fill_mode" : 0,
      "pad_b" : 0,
      "pad_l" : 0,
      "top" : "global_average_pooling2d_1_output",
      "size_x" : 7,
      "is_global" : 1,
      "top_shape_style" : 0,
      "stride_x" : 1,
      "avg_or_max" : 0,
      "average_count_exclude_padding" : 1,
      "type" : "pool",
      "name" : "global_average_pooling2d_1",
      "pad_t" : 0,
      "stride_y" : 1,
      "bottom" : "activation_188_output",
      "weights" : {

      },
      "pad_mode" : 2,
      "size_y" : 7,
      "pad_value" : 0
    },
    {
      "nB" : 1056,
      "top" : "dense_1_output",
      "has_biases" : 1,
      "weights" : {

      },
      "nC" : 10,
      "blob_weights" : 1099,
      "type" : "inner_product",
      "has_relu" : 0,
      "bottom" : "global_average_pooling2d_1_output",
      "blob_biases" : 1097,
      "has_tanh" : 0,
      "name" : "dense_1",
      "has_prelu" : 0
    },
    {
      "C" : 2,
      "weights" : {

      },
      "top" : "scores",
      "type" : "softmax",
      "name" : "dense_1__activation__",
      "bottom" : "dense_1_output"
    }
  ]
}